node {
  name: "conv1_weights/Initializer/ones/shape_as_tensor"
  op: "Const"
  attr {
    key: "_class"
    value {
      list {
        s: "loc:@conv1_weights"
      }
    }
  }
  attr {
    key: "_output_shapes"
    value {
      list {
        shape {
          dim {
            size: 4
          }
        }
      }
    }
  }
  attr {
    key: "dtype"
    value {
      type: DT_INT32
    }
  }
  attr {
    key: "value"
    value {
      tensor {
        dtype: DT_INT32
        tensor_shape {
          dim {
            size: 4
          }
        }
        tensor_content: "\005\000\000\000\005\000\000\000\003\000\000\000@\000\000\000"
      }
    }
  }
}
node {
  name: "conv1_weights/Initializer/ones/Const"
  op: "Const"
  attr {
    key: "_class"
    value {
      list {
        s: "loc:@conv1_weights"
      }
    }
  }
  attr {
    key: "_output_shapes"
    value {
      list {
        shape {
        }
      }
    }
  }
  attr {
    key: "dtype"
    value {
      type: DT_FLOAT
    }
  }
  attr {
    key: "value"
    value {
      tensor {
        dtype: DT_FLOAT
        tensor_shape {
        }
        float_val: 1.0
      }
    }
  }
}
node {
  name: "conv1_weights/Initializer/ones"
  op: "Fill"
  input: "conv1_weights/Initializer/ones/shape_as_tensor"
  input: "conv1_weights/Initializer/ones/Const"
  attr {
    key: "T"
    value {
      type: DT_FLOAT
    }
  }
  attr {
    key: "_class"
    value {
      list {
        s: "loc:@conv1_weights"
      }
    }
  }
  attr {
    key: "_output_shapes"
    value {
      list {
        shape {
          dim {
            size: 5
          }
          dim {
            size: 5
          }
          dim {
            size: 3
          }
          dim {
            size: 64
          }
        }
      }
    }
  }
  attr {
    key: "index_type"
    value {
      type: DT_INT32
    }
  }
}
node {
  name: "conv1_weights"
  op: "VariableV2"
  attr {
    key: "_class"
    value {
      list {
        s: "loc:@conv1_weights"
      }
    }
  }
  attr {
    key: "_output_shapes"
    value {
      list {
        shape {
          dim {
            size: 5
          }
          dim {
            size: 5
          }
          dim {
            size: 3
          }
          dim {
            size: 64
          }
        }
      }
    }
  }
  attr {
    key: "container"
    value {
      s: ""
    }
  }
  attr {
    key: "dtype"
    value {
      type: DT_FLOAT
    }
  }
  attr {
    key: "shape"
    value {
      shape {
        dim {
          size: 5
        }
        dim {
          size: 5
        }
        dim {
          size: 3
        }
        dim {
          size: 64
        }
      }
    }
  }
  attr {
    key: "shared_name"
    value {
      s: ""
    }
  }
}
node {
  name: "conv1_weights/Assign"
  op: "Assign"
  input: "conv1_weights"
  input: "conv1_weights/Initializer/ones"
  attr {
    key: "T"
    value {
      type: DT_FLOAT
    }
  }
  attr {
    key: "_class"
    value {
      list {
        s: "loc:@conv1_weights"
      }
    }
  }
  attr {
    key: "_output_shapes"
    value {
      list {
        shape {
          dim {
            size: 5
          }
          dim {
            size: 5
          }
          dim {
            size: 3
          }
          dim {
            size: 64
          }
        }
      }
    }
  }
  attr {
    key: "use_locking"
    value {
      b: true
    }
  }
  attr {
    key: "validate_shape"
    value {
      b: true
    }
  }
}
node {
  name: "conv1_biases/Initializer/Const"
  op: "Const"
  attr {
    key: "_class"
    value {
      list {
        s: "loc:@conv1_biases"
      }
    }
  }
  attr {
    key: "_output_shapes"
    value {
      list {
        shape {
          dim {
            size: 64
          }
        }
      }
    }
  }
  attr {
    key: "dtype"
    value {
      type: DT_FLOAT
    }
  }
  attr {
    key: "value"
    value {
      tensor {
        dtype: DT_FLOAT
        tensor_shape {
          dim {
            size: 64
          }
        }
        float_val: 0.0
      }
    }
  }
}
node {
  name: "conv1_biases"
  op: "VariableV2"
  attr {
    key: "_class"
    value {
      list {
        s: "loc:@conv1_biases"
      }
    }
  }
  attr {
    key: "_output_shapes"
    value {
      list {
        shape {
          dim {
            size: 64
          }
        }
      }
    }
  }
  attr {
    key: "container"
    value {
      s: ""
    }
  }
  attr {
    key: "dtype"
    value {
      type: DT_FLOAT
    }
  }
  attr {
    key: "shape"
    value {
      shape {
        dim {
          size: 64
        }
      }
    }
  }
  attr {
    key: "shared_name"
    value {
      s: ""
    }
  }
}
node {
  name: "conv1_biases/Assign"
  op: "Assign"
  input: "conv1_biases"
  input: "conv1_biases/Initializer/Const"
  attr {
    key: "T"
    value {
      type: DT_FLOAT
    }
  }
  attr {
    key: "_class"
    value {
      list {
        s: "loc:@conv1_biases"
      }
    }
  }
  attr {
    key: "_output_shapes"
    value {
      list {
        shape {
          dim {
            size: 64
          }
        }
      }
    }
  }
  attr {
    key: "use_locking"
    value {
      b: true
    }
  }
  attr {
    key: "validate_shape"
    value {
      b: true
    }
  }
}
node {
  name: "conv2_weights/Initializer/ones/shape_as_tensor"
  op: "Const"
  attr {
    key: "_class"
    value {
      list {
        s: "loc:@conv2_weights"
      }
    }
  }
  attr {
    key: "_output_shapes"
    value {
      list {
        shape {
          dim {
            size: 4
          }
        }
      }
    }
  }
  attr {
    key: "dtype"
    value {
      type: DT_INT32
    }
  }
  attr {
    key: "value"
    value {
      tensor {
        dtype: DT_INT32
        tensor_shape {
          dim {
            size: 4
          }
        }
        tensor_content: "\005\000\000\000\005\000\000\000@\000\000\000@\000\000\000"
      }
    }
  }
}
node {
  name: "conv2_weights/Initializer/ones/Const"
  op: "Const"
  attr {
    key: "_class"
    value {
      list {
        s: "loc:@conv2_weights"
      }
    }
  }
  attr {
    key: "_output_shapes"
    value {
      list {
        shape {
        }
      }
    }
  }
  attr {
    key: "dtype"
    value {
      type: DT_FLOAT
    }
  }
  attr {
    key: "value"
    value {
      tensor {
        dtype: DT_FLOAT
        tensor_shape {
        }
        float_val: 1.0
      }
    }
  }
}
node {
  name: "conv2_weights/Initializer/ones"
  op: "Fill"
  input: "conv2_weights/Initializer/ones/shape_as_tensor"
  input: "conv2_weights/Initializer/ones/Const"
  attr {
    key: "T"
    value {
      type: DT_FLOAT
    }
  }
  attr {
    key: "_class"
    value {
      list {
        s: "loc:@conv2_weights"
      }
    }
  }
  attr {
    key: "_output_shapes"
    value {
      list {
        shape {
          dim {
            size: 5
          }
          dim {
            size: 5
          }
          dim {
            size: 64
          }
          dim {
            size: 64
          }
        }
      }
    }
  }
  attr {
    key: "index_type"
    value {
      type: DT_INT32
    }
  }
}
node {
  name: "conv2_weights"
  op: "VariableV2"
  attr {
    key: "_class"
    value {
      list {
        s: "loc:@conv2_weights"
      }
    }
  }
  attr {
    key: "_output_shapes"
    value {
      list {
        shape {
          dim {
            size: 5
          }
          dim {
            size: 5
          }
          dim {
            size: 64
          }
          dim {
            size: 64
          }
        }
      }
    }
  }
  attr {
    key: "container"
    value {
      s: ""
    }
  }
  attr {
    key: "dtype"
    value {
      type: DT_FLOAT
    }
  }
  attr {
    key: "shape"
    value {
      shape {
        dim {
          size: 5
        }
        dim {
          size: 5
        }
        dim {
          size: 64
        }
        dim {
          size: 64
        }
      }
    }
  }
  attr {
    key: "shared_name"
    value {
      s: ""
    }
  }
}
node {
  name: "conv2_weights/Assign"
  op: "Assign"
  input: "conv2_weights"
  input: "conv2_weights/Initializer/ones"
  attr {
    key: "T"
    value {
      type: DT_FLOAT
    }
  }
  attr {
    key: "_class"
    value {
      list {
        s: "loc:@conv2_weights"
      }
    }
  }
  attr {
    key: "_output_shapes"
    value {
      list {
        shape {
          dim {
            size: 5
          }
          dim {
            size: 5
          }
          dim {
            size: 64
          }
          dim {
            size: 64
          }
        }
      }
    }
  }
  attr {
    key: "use_locking"
    value {
      b: true
    }
  }
  attr {
    key: "validate_shape"
    value {
      b: true
    }
  }
}
node {
  name: "conv2_biases/Initializer/Const"
  op: "Const"
  attr {
    key: "_class"
    value {
      list {
        s: "loc:@conv2_biases"
      }
    }
  }
  attr {
    key: "_output_shapes"
    value {
      list {
        shape {
          dim {
            size: 64
          }
        }
      }
    }
  }
  attr {
    key: "dtype"
    value {
      type: DT_FLOAT
    }
  }
  attr {
    key: "value"
    value {
      tensor {
        dtype: DT_FLOAT
        tensor_shape {
          dim {
            size: 64
          }
        }
        float_val: 0.10000000149011612
      }
    }
  }
}
node {
  name: "conv2_biases"
  op: "VariableV2"
  attr {
    key: "_class"
    value {
      list {
        s: "loc:@conv2_biases"
      }
    }
  }
  attr {
    key: "_output_shapes"
    value {
      list {
        shape {
          dim {
            size: 64
          }
        }
      }
    }
  }
  attr {
    key: "container"
    value {
      s: ""
    }
  }
  attr {
    key: "dtype"
    value {
      type: DT_FLOAT
    }
  }
  attr {
    key: "shape"
    value {
      shape {
        dim {
          size: 64
        }
      }
    }
  }
  attr {
    key: "shared_name"
    value {
      s: ""
    }
  }
}
node {
  name: "conv2_biases/Assign"
  op: "Assign"
  input: "conv2_biases"
  input: "conv2_biases/Initializer/Const"
  attr {
    key: "T"
    value {
      type: DT_FLOAT
    }
  }
  attr {
    key: "_class"
    value {
      list {
        s: "loc:@conv2_biases"
      }
    }
  }
  attr {
    key: "_output_shapes"
    value {
      list {
        shape {
          dim {
            size: 64
          }
        }
      }
    }
  }
  attr {
    key: "use_locking"
    value {
      b: true
    }
  }
  attr {
    key: "validate_shape"
    value {
      b: true
    }
  }
}
node {
  name: "dense3_weights/Initializer/ones/shape_as_tensor"
  op: "Const"
  attr {
    key: "_class"
    value {
      list {
        s: "loc:@dense3_weights"
      }
    }
  }
  attr {
    key: "_output_shapes"
    value {
      list {
        shape {
          dim {
            size: 2
          }
        }
      }
    }
  }
  attr {
    key: "dtype"
    value {
      type: DT_INT32
    }
  }
  attr {
    key: "value"
    value {
      tensor {
        dtype: DT_INT32
        tensor_shape {
          dim {
            size: 2
          }
        }
        tensor_content: "\000\020\000\000\200\001\000\000"
      }
    }
  }
}
node {
  name: "dense3_weights/Initializer/ones/Const"
  op: "Const"
  attr {
    key: "_class"
    value {
      list {
        s: "loc:@dense3_weights"
      }
    }
  }
  attr {
    key: "_output_shapes"
    value {
      list {
        shape {
        }
      }
    }
  }
  attr {
    key: "dtype"
    value {
      type: DT_FLOAT
    }
  }
  attr {
    key: "value"
    value {
      tensor {
        dtype: DT_FLOAT
        tensor_shape {
        }
        float_val: 1.0
      }
    }
  }
}
node {
  name: "dense3_weights/Initializer/ones"
  op: "Fill"
  input: "dense3_weights/Initializer/ones/shape_as_tensor"
  input: "dense3_weights/Initializer/ones/Const"
  attr {
    key: "T"
    value {
      type: DT_FLOAT
    }
  }
  attr {
    key: "_class"
    value {
      list {
        s: "loc:@dense3_weights"
      }
    }
  }
  attr {
    key: "_output_shapes"
    value {
      list {
        shape {
          dim {
            size: 4096
          }
          dim {
            size: 384
          }
        }
      }
    }
  }
  attr {
    key: "index_type"
    value {
      type: DT_INT32
    }
  }
}
node {
  name: "dense3_weights"
  op: "VariableV2"
  attr {
    key: "_class"
    value {
      list {
        s: "loc:@dense3_weights"
      }
    }
  }
  attr {
    key: "_output_shapes"
    value {
      list {
        shape {
          dim {
            size: 4096
          }
          dim {
            size: 384
          }
        }
      }
    }
  }
  attr {
    key: "container"
    value {
      s: ""
    }
  }
  attr {
    key: "dtype"
    value {
      type: DT_FLOAT
    }
  }
  attr {
    key: "shape"
    value {
      shape {
        dim {
          size: 4096
        }
        dim {
          size: 384
        }
      }
    }
  }
  attr {
    key: "shared_name"
    value {
      s: ""
    }
  }
}
node {
  name: "dense3_weights/Assign"
  op: "Assign"
  input: "dense3_weights"
  input: "dense3_weights/Initializer/ones"
  attr {
    key: "T"
    value {
      type: DT_FLOAT
    }
  }
  attr {
    key: "_class"
    value {
      list {
        s: "loc:@dense3_weights"
      }
    }
  }
  attr {
    key: "_output_shapes"
    value {
      list {
        shape {
          dim {
            size: 4096
          }
          dim {
            size: 384
          }
        }
      }
    }
  }
  attr {
    key: "use_locking"
    value {
      b: true
    }
  }
  attr {
    key: "validate_shape"
    value {
      b: true
    }
  }
}
node {
  name: "dense3_biases/Initializer/Const"
  op: "Const"
  attr {
    key: "_class"
    value {
      list {
        s: "loc:@dense3_biases"
      }
    }
  }
  attr {
    key: "_output_shapes"
    value {
      list {
        shape {
          dim {
            size: 384
          }
        }
      }
    }
  }
  attr {
    key: "dtype"
    value {
      type: DT_FLOAT
    }
  }
  attr {
    key: "value"
    value {
      tensor {
        dtype: DT_FLOAT
        tensor_shape {
          dim {
            size: 384
          }
        }
        float_val: 0.10000000149011612
      }
    }
  }
}
node {
  name: "dense3_biases"
  op: "VariableV2"
  attr {
    key: "_class"
    value {
      list {
        s: "loc:@dense3_biases"
      }
    }
  }
  attr {
    key: "_output_shapes"
    value {
      list {
        shape {
          dim {
            size: 384
          }
        }
      }
    }
  }
  attr {
    key: "container"
    value {
      s: ""
    }
  }
  attr {
    key: "dtype"
    value {
      type: DT_FLOAT
    }
  }
  attr {
    key: "shape"
    value {
      shape {
        dim {
          size: 384
        }
      }
    }
  }
  attr {
    key: "shared_name"
    value {
      s: ""
    }
  }
}
node {
  name: "dense3_biases/Assign"
  op: "Assign"
  input: "dense3_biases"
  input: "dense3_biases/Initializer/Const"
  attr {
    key: "T"
    value {
      type: DT_FLOAT
    }
  }
  attr {
    key: "_class"
    value {
      list {
        s: "loc:@dense3_biases"
      }
    }
  }
  attr {
    key: "_output_shapes"
    value {
      list {
        shape {
          dim {
            size: 384
          }
        }
      }
    }
  }
  attr {
    key: "use_locking"
    value {
      b: true
    }
  }
  attr {
    key: "validate_shape"
    value {
      b: true
    }
  }
}
node {
  name: "dense4_weights/Initializer/ones/shape_as_tensor"
  op: "Const"
  attr {
    key: "_class"
    value {
      list {
        s: "loc:@dense4_weights"
      }
    }
  }
  attr {
    key: "_output_shapes"
    value {
      list {
        shape {
          dim {
            size: 2
          }
        }
      }
    }
  }
  attr {
    key: "dtype"
    value {
      type: DT_INT32
    }
  }
  attr {
    key: "value"
    value {
      tensor {
        dtype: DT_INT32
        tensor_shape {
          dim {
            size: 2
          }
        }
        tensor_content: "\200\001\000\000\300\000\000\000"
      }
    }
  }
}
node {
  name: "dense4_weights/Initializer/ones/Const"
  op: "Const"
  attr {
    key: "_class"
    value {
      list {
        s: "loc:@dense4_weights"
      }
    }
  }
  attr {
    key: "_output_shapes"
    value {
      list {
        shape {
        }
      }
    }
  }
  attr {
    key: "dtype"
    value {
      type: DT_FLOAT
    }
  }
  attr {
    key: "value"
    value {
      tensor {
        dtype: DT_FLOAT
        tensor_shape {
        }
        float_val: 1.0
      }
    }
  }
}
node {
  name: "dense4_weights/Initializer/ones"
  op: "Fill"
  input: "dense4_weights/Initializer/ones/shape_as_tensor"
  input: "dense4_weights/Initializer/ones/Const"
  attr {
    key: "T"
    value {
      type: DT_FLOAT
    }
  }
  attr {
    key: "_class"
    value {
      list {
        s: "loc:@dense4_weights"
      }
    }
  }
  attr {
    key: "_output_shapes"
    value {
      list {
        shape {
          dim {
            size: 384
          }
          dim {
            size: 192
          }
        }
      }
    }
  }
  attr {
    key: "index_type"
    value {
      type: DT_INT32
    }
  }
}
node {
  name: "dense4_weights"
  op: "VariableV2"
  attr {
    key: "_class"
    value {
      list {
        s: "loc:@dense4_weights"
      }
    }
  }
  attr {
    key: "_output_shapes"
    value {
      list {
        shape {
          dim {
            size: 384
          }
          dim {
            size: 192
          }
        }
      }
    }
  }
  attr {
    key: "container"
    value {
      s: ""
    }
  }
  attr {
    key: "dtype"
    value {
      type: DT_FLOAT
    }
  }
  attr {
    key: "shape"
    value {
      shape {
        dim {
          size: 384
        }
        dim {
          size: 192
        }
      }
    }
  }
  attr {
    key: "shared_name"
    value {
      s: ""
    }
  }
}
node {
  name: "dense4_weights/Assign"
  op: "Assign"
  input: "dense4_weights"
  input: "dense4_weights/Initializer/ones"
  attr {
    key: "T"
    value {
      type: DT_FLOAT
    }
  }
  attr {
    key: "_class"
    value {
      list {
        s: "loc:@dense4_weights"
      }
    }
  }
  attr {
    key: "_output_shapes"
    value {
      list {
        shape {
          dim {
            size: 384
          }
          dim {
            size: 192
          }
        }
      }
    }
  }
  attr {
    key: "use_locking"
    value {
      b: true
    }
  }
  attr {
    key: "validate_shape"
    value {
      b: true
    }
  }
}
node {
  name: "dense4_biases/Initializer/Const"
  op: "Const"
  attr {
    key: "_class"
    value {
      list {
        s: "loc:@dense4_biases"
      }
    }
  }
  attr {
    key: "_output_shapes"
    value {
      list {
        shape {
          dim {
            size: 192
          }
        }
      }
    }
  }
  attr {
    key: "dtype"
    value {
      type: DT_FLOAT
    }
  }
  attr {
    key: "value"
    value {
      tensor {
        dtype: DT_FLOAT
        tensor_shape {
          dim {
            size: 192
          }
        }
        float_val: 0.10000000149011612
      }
    }
  }
}
node {
  name: "dense4_biases"
  op: "VariableV2"
  attr {
    key: "_class"
    value {
      list {
        s: "loc:@dense4_biases"
      }
    }
  }
  attr {
    key: "_output_shapes"
    value {
      list {
        shape {
          dim {
            size: 192
          }
        }
      }
    }
  }
  attr {
    key: "container"
    value {
      s: ""
    }
  }
  attr {
    key: "dtype"
    value {
      type: DT_FLOAT
    }
  }
  attr {
    key: "shape"
    value {
      shape {
        dim {
          size: 192
        }
      }
    }
  }
  attr {
    key: "shared_name"
    value {
      s: ""
    }
  }
}
node {
  name: "dense4_biases/Assign"
  op: "Assign"
  input: "dense4_biases"
  input: "dense4_biases/Initializer/Const"
  attr {
    key: "T"
    value {
      type: DT_FLOAT
    }
  }
  attr {
    key: "_class"
    value {
      list {
        s: "loc:@dense4_biases"
      }
    }
  }
  attr {
    key: "_output_shapes"
    value {
      list {
        shape {
          dim {
            size: 192
          }
        }
      }
    }
  }
  attr {
    key: "use_locking"
    value {
      b: true
    }
  }
  attr {
    key: "validate_shape"
    value {
      b: true
    }
  }
}
node {
  name: "softmax_linear_weights/Initializer/ones/shape_as_tensor"
  op: "Const"
  attr {
    key: "_class"
    value {
      list {
        s: "loc:@softmax_linear_weights"
      }
    }
  }
  attr {
    key: "_output_shapes"
    value {
      list {
        shape {
          dim {
            size: 2
          }
        }
      }
    }
  }
  attr {
    key: "dtype"
    value {
      type: DT_INT32
    }
  }
  attr {
    key: "value"
    value {
      tensor {
        dtype: DT_INT32
        tensor_shape {
          dim {
            size: 2
          }
        }
        tensor_content: "\300\000\000\000\n\000\000\000"
      }
    }
  }
}
node {
  name: "softmax_linear_weights/Initializer/ones/Const"
  op: "Const"
  attr {
    key: "_class"
    value {
      list {
        s: "loc:@softmax_linear_weights"
      }
    }
  }
  attr {
    key: "_output_shapes"
    value {
      list {
        shape {
        }
      }
    }
  }
  attr {
    key: "dtype"
    value {
      type: DT_FLOAT
    }
  }
  attr {
    key: "value"
    value {
      tensor {
        dtype: DT_FLOAT
        tensor_shape {
        }
        float_val: 1.0
      }
    }
  }
}
node {
  name: "softmax_linear_weights/Initializer/ones"
  op: "Fill"
  input: "softmax_linear_weights/Initializer/ones/shape_as_tensor"
  input: "softmax_linear_weights/Initializer/ones/Const"
  attr {
    key: "T"
    value {
      type: DT_FLOAT
    }
  }
  attr {
    key: "_class"
    value {
      list {
        s: "loc:@softmax_linear_weights"
      }
    }
  }
  attr {
    key: "_output_shapes"
    value {
      list {
        shape {
          dim {
            size: 192
          }
          dim {
            size: 10
          }
        }
      }
    }
  }
  attr {
    key: "index_type"
    value {
      type: DT_INT32
    }
  }
}
node {
  name: "softmax_linear_weights"
  op: "VariableV2"
  attr {
    key: "_class"
    value {
      list {
        s: "loc:@softmax_linear_weights"
      }
    }
  }
  attr {
    key: "_output_shapes"
    value {
      list {
        shape {
          dim {
            size: 192
          }
          dim {
            size: 10
          }
        }
      }
    }
  }
  attr {
    key: "container"
    value {
      s: ""
    }
  }
  attr {
    key: "dtype"
    value {
      type: DT_FLOAT
    }
  }
  attr {
    key: "shape"
    value {
      shape {
        dim {
          size: 192
        }
        dim {
          size: 10
        }
      }
    }
  }
  attr {
    key: "shared_name"
    value {
      s: ""
    }
  }
}
node {
  name: "softmax_linear_weights/Assign"
  op: "Assign"
  input: "softmax_linear_weights"
  input: "softmax_linear_weights/Initializer/ones"
  attr {
    key: "T"
    value {
      type: DT_FLOAT
    }
  }
  attr {
    key: "_class"
    value {
      list {
        s: "loc:@softmax_linear_weights"
      }
    }
  }
  attr {
    key: "_output_shapes"
    value {
      list {
        shape {
          dim {
            size: 192
          }
          dim {
            size: 10
          }
        }
      }
    }
  }
  attr {
    key: "use_locking"
    value {
      b: true
    }
  }
  attr {
    key: "validate_shape"
    value {
      b: true
    }
  }
}
node {
  name: "softmax_linear_biases/Initializer/Const"
  op: "Const"
  attr {
    key: "_class"
    value {
      list {
        s: "loc:@softmax_linear_biases"
      }
    }
  }
  attr {
    key: "_output_shapes"
    value {
      list {
        shape {
          dim {
            size: 10
          }
        }
      }
    }
  }
  attr {
    key: "dtype"
    value {
      type: DT_FLOAT
    }
  }
  attr {
    key: "value"
    value {
      tensor {
        dtype: DT_FLOAT
        tensor_shape {
          dim {
            size: 10
          }
        }
        float_val: 0.0
      }
    }
  }
}
node {
  name: "softmax_linear_biases"
  op: "VariableV2"
  attr {
    key: "_class"
    value {
      list {
        s: "loc:@softmax_linear_biases"
      }
    }
  }
  attr {
    key: "_output_shapes"
    value {
      list {
        shape {
          dim {
            size: 10
          }
        }
      }
    }
  }
  attr {
    key: "container"
    value {
      s: ""
    }
  }
  attr {
    key: "dtype"
    value {
      type: DT_FLOAT
    }
  }
  attr {
    key: "shape"
    value {
      shape {
        dim {
          size: 10
        }
      }
    }
  }
  attr {
    key: "shared_name"
    value {
      s: ""
    }
  }
}
node {
  name: "softmax_linear_biases/Assign"
  op: "Assign"
  input: "softmax_linear_biases"
  input: "softmax_linear_biases/Initializer/Const"
  attr {
    key: "T"
    value {
      type: DT_FLOAT
    }
  }
  attr {
    key: "_class"
    value {
      list {
        s: "loc:@softmax_linear_biases"
      }
    }
  }
  attr {
    key: "_output_shapes"
    value {
      list {
        shape {
          dim {
            size: 10
          }
        }
      }
    }
  }
  attr {
    key: "use_locking"
    value {
      b: true
    }
  }
  attr {
    key: "validate_shape"
    value {
      b: true
    }
  }
}
node {
  name: "init"
  op: "NoOp"
  input: "^conv1_biases/Assign"
  input: "^conv1_weights/Assign"
  input: "^conv2_biases/Assign"
  input: "^conv2_weights/Assign"
  input: "^dense3_biases/Assign"
  input: "^dense3_weights/Assign"
  input: "^dense4_biases/Assign"
  input: "^dense4_weights/Assign"
  input: "^softmax_linear_biases/Assign"
  input: "^softmax_linear_weights/Assign"
}
node {
  name: "images/shape_as_tensor"
  op: "Const"
  attr {
    key: "_output_shapes"
    value {
      list {
        shape {
          dim {
            size: 4
          }
        }
      }
    }
  }
  attr {
    key: "dtype"
    value {
      type: DT_INT32
    }
  }
  attr {
    key: "value"
    value {
      tensor {
        dtype: DT_INT32
        tensor_shape {
          dim {
            size: 4
          }
        }
        tensor_content: "\200\000\000\000 \000\000\000 \000\000\000\003\000\000\000"
      }
    }
  }
}
node {
  name: "images/Const"
  op: "Const"
  attr {
    key: "_output_shapes"
    value {
      list {
        shape {
        }
      }
    }
  }
  attr {
    key: "dtype"
    value {
      type: DT_FLOAT
    }
  }
  attr {
    key: "value"
    value {
      tensor {
        dtype: DT_FLOAT
        tensor_shape {
        }
        float_val: 1.0
      }
    }
  }
}
node {
  name: "images"
  op: "Fill"
  input: "images/shape_as_tensor"
  input: "images/Const"
  attr {
    key: "T"
    value {
      type: DT_FLOAT
    }
  }
  attr {
    key: "_output_shapes"
    value {
      list {
        shape {
          dim {
            size: 128
          }
          dim {
            size: 32
          }
          dim {
            size: 32
          }
          dim {
            size: 3
          }
        }
      }
    }
  }
  attr {
    key: "index_type"
    value {
      type: DT_INT32
    }
  }
}
node {
  name: "labels"
  op: "Const"
  attr {
    key: "_output_shapes"
    value {
      list {
        shape {
          dim {
            size: 128
          }
        }
      }
    }
  }
  attr {
    key: "dtype"
    value {
      type: DT_FLOAT
    }
  }
  attr {
    key: "value"
    value {
      tensor {
        dtype: DT_FLOAT
        tensor_shape {
          dim {
            size: 128
          }
        }
        float_val: 0.0
      }
    }
  }
}
node {
  name: "conv1_weights/read"
  op: "Identity"
  input: "conv1_weights"
  attr {
    key: "T"
    value {
      type: DT_FLOAT
    }
  }
  attr {
    key: "_class"
    value {
      list {
        s: "loc:@conv1_weights"
      }
    }
  }
  attr {
    key: "_output_shapes"
    value {
      list {
        shape {
          dim {
            size: 5
          }
          dim {
            size: 5
          }
          dim {
            size: 3
          }
          dim {
            size: 64
          }
        }
      }
    }
  }
}
node {
  name: "conv1_matmul"
  op: "Conv2D"
  input: "images"
  input: "conv1_weights/read"
  attr {
    key: "T"
    value {
      type: DT_FLOAT
    }
  }
  attr {
    key: "_output_shapes"
    value {
      list {
        shape {
          dim {
            size: 128
          }
          dim {
            size: 32
          }
          dim {
            size: 32
          }
          dim {
            size: 64
          }
        }
      }
    }
  }
  attr {
    key: "data_format"
    value {
      s: "NHWC"
    }
  }
  attr {
    key: "dilations"
    value {
      list {
        i: 1
        i: 1
        i: 1
        i: 1
      }
    }
  }
  attr {
    key: "explicit_paddings"
    value {
      list {
      }
    }
  }
  attr {
    key: "padding"
    value {
      s: "SAME"
    }
  }
  attr {
    key: "strides"
    value {
      list {
        i: 1
        i: 1
        i: 1
        i: 1
      }
    }
  }
  attr {
    key: "use_cudnn_on_gpu"
    value {
      b: true
    }
  }
}
node {
  name: "conv1_biases/read"
  op: "Identity"
  input: "conv1_biases"
  attr {
    key: "T"
    value {
      type: DT_FLOAT
    }
  }
  attr {
    key: "_class"
    value {
      list {
        s: "loc:@conv1_biases"
      }
    }
  }
  attr {
    key: "_output_shapes"
    value {
      list {
        shape {
          dim {
            size: 64
          }
        }
      }
    }
  }
}
node {
  name: "conv1_add"
  op: "BiasAdd"
  input: "conv1_matmul"
  input: "conv1_biases/read"
  attr {
    key: "T"
    value {
      type: DT_FLOAT
    }
  }
  attr {
    key: "_output_shapes"
    value {
      list {
        shape {
          dim {
            size: 128
          }
          dim {
            size: 32
          }
          dim {
            size: 32
          }
          dim {
            size: 64
          }
        }
      }
    }
  }
  attr {
    key: "data_format"
    value {
      s: "NHWC"
    }
  }
}
node {
  name: "conv1_relu"
  op: "Relu"
  input: "conv1_add"
  attr {
    key: "T"
    value {
      type: DT_FLOAT
    }
  }
  attr {
    key: "_output_shapes"
    value {
      list {
        shape {
          dim {
            size: 128
          }
          dim {
            size: 32
          }
          dim {
            size: 32
          }
          dim {
            size: 64
          }
        }
      }
    }
  }
}
node {
  name: "pool1"
  op: "MaxPool"
  input: "conv1_relu"
  attr {
    key: "T"
    value {
      type: DT_FLOAT
    }
  }
  attr {
    key: "_output_shapes"
    value {
      list {
        shape {
          dim {
            size: 128
          }
          dim {
            size: 16
          }
          dim {
            size: 16
          }
          dim {
            size: 64
          }
        }
      }
    }
  }
  attr {
    key: "data_format"
    value {
      s: "NHWC"
    }
  }
  attr {
    key: "ksize"
    value {
      list {
        i: 1
        i: 3
        i: 3
        i: 1
      }
    }
  }
  attr {
    key: "padding"
    value {
      s: "SAME"
    }
  }
  attr {
    key: "strides"
    value {
      list {
        i: 1
        i: 2
        i: 2
        i: 1
      }
    }
  }
}
node {
  name: "norm1"
  op: "LRN"
  input: "pool1"
  attr {
    key: "T"
    value {
      type: DT_FLOAT
    }
  }
  attr {
    key: "_output_shapes"
    value {
      list {
        shape {
          dim {
            size: 128
          }
          dim {
            size: 16
          }
          dim {
            size: 16
          }
          dim {
            size: 64
          }
        }
      }
    }
  }
  attr {
    key: "alpha"
    value {
      f: 0.00011111111234640703
    }
  }
  attr {
    key: "beta"
    value {
      f: 0.75
    }
  }
  attr {
    key: "bias"
    value {
      f: 1.0
    }
  }
  attr {
    key: "depth_radius"
    value {
      i: 4
    }
  }
}
node {
  name: "conv2_weights/read"
  op: "Identity"
  input: "conv2_weights"
  attr {
    key: "T"
    value {
      type: DT_FLOAT
    }
  }
  attr {
    key: "_class"
    value {
      list {
        s: "loc:@conv2_weights"
      }
    }
  }
  attr {
    key: "_output_shapes"
    value {
      list {
        shape {
          dim {
            size: 5
          }
          dim {
            size: 5
          }
          dim {
            size: 64
          }
          dim {
            size: 64
          }
        }
      }
    }
  }
}
node {
  name: "conv2_matmul"
  op: "Conv2D"
  input: "norm1"
  input: "conv2_weights/read"
  attr {
    key: "T"
    value {
      type: DT_FLOAT
    }
  }
  attr {
    key: "_output_shapes"
    value {
      list {
        shape {
          dim {
            size: 128
          }
          dim {
            size: 16
          }
          dim {
            size: 16
          }
          dim {
            size: 64
          }
        }
      }
    }
  }
  attr {
    key: "data_format"
    value {
      s: "NHWC"
    }
  }
  attr {
    key: "dilations"
    value {
      list {
        i: 1
        i: 1
        i: 1
        i: 1
      }
    }
  }
  attr {
    key: "explicit_paddings"
    value {
      list {
      }
    }
  }
  attr {
    key: "padding"
    value {
      s: "SAME"
    }
  }
  attr {
    key: "strides"
    value {
      list {
        i: 1
        i: 1
        i: 1
        i: 1
      }
    }
  }
  attr {
    key: "use_cudnn_on_gpu"
    value {
      b: true
    }
  }
}
node {
  name: "conv2_biases/read"
  op: "Identity"
  input: "conv2_biases"
  attr {
    key: "T"
    value {
      type: DT_FLOAT
    }
  }
  attr {
    key: "_class"
    value {
      list {
        s: "loc:@conv2_biases"
      }
    }
  }
  attr {
    key: "_output_shapes"
    value {
      list {
        shape {
          dim {
            size: 64
          }
        }
      }
    }
  }
}
node {
  name: "conv2_add"
  op: "BiasAdd"
  input: "conv2_matmul"
  input: "conv2_biases/read"
  attr {
    key: "T"
    value {
      type: DT_FLOAT
    }
  }
  attr {
    key: "_output_shapes"
    value {
      list {
        shape {
          dim {
            size: 128
          }
          dim {
            size: 16
          }
          dim {
            size: 16
          }
          dim {
            size: 64
          }
        }
      }
    }
  }
  attr {
    key: "data_format"
    value {
      s: "NHWC"
    }
  }
}
node {
  name: "conv2_relu"
  op: "Relu"
  input: "conv2_add"
  attr {
    key: "T"
    value {
      type: DT_FLOAT
    }
  }
  attr {
    key: "_output_shapes"
    value {
      list {
        shape {
          dim {
            size: 128
          }
          dim {
            size: 16
          }
          dim {
            size: 16
          }
          dim {
            size: 64
          }
        }
      }
    }
  }
}
node {
  name: "norm2"
  op: "LRN"
  input: "conv2_relu"
  attr {
    key: "T"
    value {
      type: DT_FLOAT
    }
  }
  attr {
    key: "_output_shapes"
    value {
      list {
        shape {
          dim {
            size: 128
          }
          dim {
            size: 16
          }
          dim {
            size: 16
          }
          dim {
            size: 64
          }
        }
      }
    }
  }
  attr {
    key: "alpha"
    value {
      f: 0.00011111111234640703
    }
  }
  attr {
    key: "beta"
    value {
      f: 0.75
    }
  }
  attr {
    key: "bias"
    value {
      f: 1.0
    }
  }
  attr {
    key: "depth_radius"
    value {
      i: 4
    }
  }
}
node {
  name: "pool2"
  op: "MaxPool"
  input: "norm2"
  attr {
    key: "T"
    value {
      type: DT_FLOAT
    }
  }
  attr {
    key: "_output_shapes"
    value {
      list {
        shape {
          dim {
            size: 128
          }
          dim {
            size: 8
          }
          dim {
            size: 8
          }
          dim {
            size: 64
          }
        }
      }
    }
  }
  attr {
    key: "data_format"
    value {
      s: "NHWC"
    }
  }
  attr {
    key: "ksize"
    value {
      list {
        i: 1
        i: 3
        i: 3
        i: 1
      }
    }
  }
  attr {
    key: "padding"
    value {
      s: "SAME"
    }
  }
  attr {
    key: "strides"
    value {
      list {
        i: 1
        i: 2
        i: 2
        i: 1
      }
    }
  }
}
node {
  name: "reshape/shape"
  op: "Const"
  attr {
    key: "_output_shapes"
    value {
      list {
        shape {
          dim {
            size: 2
          }
        }
      }
    }
  }
  attr {
    key: "dtype"
    value {
      type: DT_INT32
    }
  }
  attr {
    key: "value"
    value {
      tensor {
        dtype: DT_INT32
        tensor_shape {
          dim {
            size: 2
          }
        }
        tensor_content: "\200\000\000\000\377\377\377\377"
      }
    }
  }
}
node {
  name: "reshape"
  op: "Reshape"
  input: "pool2"
  input: "reshape/shape"
  attr {
    key: "T"
    value {
      type: DT_FLOAT
    }
  }
  attr {
    key: "Tshape"
    value {
      type: DT_INT32
    }
  }
  attr {
    key: "_output_shapes"
    value {
      list {
        shape {
          dim {
            size: 128
          }
          dim {
            size: 4096
          }
        }
      }
    }
  }
}
node {
  name: "dense3_weights/read"
  op: "Identity"
  input: "dense3_weights"
  attr {
    key: "T"
    value {
      type: DT_FLOAT
    }
  }
  attr {
    key: "_class"
    value {
      list {
        s: "loc:@dense3_weights"
      }
    }
  }
  attr {
    key: "_output_shapes"
    value {
      list {
        shape {
          dim {
            size: 4096
          }
          dim {
            size: 384
          }
        }
      }
    }
  }
}
node {
  name: "dense3_biases/read"
  op: "Identity"
  input: "dense3_biases"
  attr {
    key: "T"
    value {
      type: DT_FLOAT
    }
  }
  attr {
    key: "_class"
    value {
      list {
        s: "loc:@dense3_biases"
      }
    }
  }
  attr {
    key: "_output_shapes"
    value {
      list {
        shape {
          dim {
            size: 384
          }
        }
      }
    }
  }
}
node {
  name: "dense3_matmul"
  op: "MatMul"
  input: "reshape"
  input: "dense3_weights/read"
  attr {
    key: "T"
    value {
      type: DT_FLOAT
    }
  }
  attr {
    key: "_output_shapes"
    value {
      list {
        shape {
          dim {
            size: 128
          }
          dim {
            size: 384
          }
        }
      }
    }
  }
  attr {
    key: "transpose_a"
    value {
      b: false
    }
  }
  attr {
    key: "transpose_b"
    value {
      b: false
    }
  }
}
node {
  name: "dense3_add"
  op: "BiasAdd"
  input: "dense3_matmul"
  input: "dense3_biases/read"
  attr {
    key: "T"
    value {
      type: DT_FLOAT
    }
  }
  attr {
    key: "_output_shapes"
    value {
      list {
        shape {
          dim {
            size: 128
          }
          dim {
            size: 384
          }
        }
      }
    }
  }
  attr {
    key: "data_format"
    value {
      s: "NHWC"
    }
  }
}
node {
  name: "dense3_relu"
  op: "Relu"
  input: "dense3_add"
  attr {
    key: "T"
    value {
      type: DT_FLOAT
    }
  }
  attr {
    key: "_output_shapes"
    value {
      list {
        shape {
          dim {
            size: 128
          }
          dim {
            size: 384
          }
        }
      }
    }
  }
}
node {
  name: "dense4_weights/read"
  op: "Identity"
  input: "dense4_weights"
  attr {
    key: "T"
    value {
      type: DT_FLOAT
    }
  }
  attr {
    key: "_class"
    value {
      list {
        s: "loc:@dense4_weights"
      }
    }
  }
  attr {
    key: "_output_shapes"
    value {
      list {
        shape {
          dim {
            size: 384
          }
          dim {
            size: 192
          }
        }
      }
    }
  }
}
node {
  name: "dense4_biases/read"
  op: "Identity"
  input: "dense4_biases"
  attr {
    key: "T"
    value {
      type: DT_FLOAT
    }
  }
  attr {
    key: "_class"
    value {
      list {
        s: "loc:@dense4_biases"
      }
    }
  }
  attr {
    key: "_output_shapes"
    value {
      list {
        shape {
          dim {
            size: 192
          }
        }
      }
    }
  }
}
node {
  name: "dense4_matmul"
  op: "MatMul"
  input: "dense3_relu"
  input: "dense4_weights/read"
  attr {
    key: "T"
    value {
      type: DT_FLOAT
    }
  }
  attr {
    key: "_output_shapes"
    value {
      list {
        shape {
          dim {
            size: 128
          }
          dim {
            size: 192
          }
        }
      }
    }
  }
  attr {
    key: "transpose_a"
    value {
      b: false
    }
  }
  attr {
    key: "transpose_b"
    value {
      b: false
    }
  }
}
node {
  name: "dense4_add"
  op: "BiasAdd"
  input: "dense4_matmul"
  input: "dense4_biases/read"
  attr {
    key: "T"
    value {
      type: DT_FLOAT
    }
  }
  attr {
    key: "_output_shapes"
    value {
      list {
        shape {
          dim {
            size: 128
          }
          dim {
            size: 192
          }
        }
      }
    }
  }
  attr {
    key: "data_format"
    value {
      s: "NHWC"
    }
  }
}
node {
  name: "dense4_relu"
  op: "Relu"
  input: "dense4_add"
  attr {
    key: "T"
    value {
      type: DT_FLOAT
    }
  }
  attr {
    key: "_output_shapes"
    value {
      list {
        shape {
          dim {
            size: 128
          }
          dim {
            size: 192
          }
        }
      }
    }
  }
}
node {
  name: "softmax_linear_weights/read"
  op: "Identity"
  input: "softmax_linear_weights"
  attr {
    key: "T"
    value {
      type: DT_FLOAT
    }
  }
  attr {
    key: "_class"
    value {
      list {
        s: "loc:@softmax_linear_weights"
      }
    }
  }
  attr {
    key: "_output_shapes"
    value {
      list {
        shape {
          dim {
            size: 192
          }
          dim {
            size: 10
          }
        }
      }
    }
  }
}
node {
  name: "softmax_linear_biases/read"
  op: "Identity"
  input: "softmax_linear_biases"
  attr {
    key: "T"
    value {
      type: DT_FLOAT
    }
  }
  attr {
    key: "_class"
    value {
      list {
        s: "loc:@softmax_linear_biases"
      }
    }
  }
  attr {
    key: "_output_shapes"
    value {
      list {
        shape {
          dim {
            size: 10
          }
        }
      }
    }
  }
}
node {
  name: "softmax_matmul"
  op: "MatMul"
  input: "dense4_relu"
  input: "softmax_linear_weights/read"
  attr {
    key: "T"
    value {
      type: DT_FLOAT
    }
  }
  attr {
    key: "_output_shapes"
    value {
      list {
        shape {
          dim {
            size: 128
          }
          dim {
            size: 10
          }
        }
      }
    }
  }
  attr {
    key: "transpose_a"
    value {
      b: false
    }
  }
  attr {
    key: "transpose_b"
    value {
      b: false
    }
  }
}
node {
  name: "softmax_add"
  op: "BiasAdd"
  input: "softmax_matmul"
  input: "softmax_linear_biases/read"
  attr {
    key: "T"
    value {
      type: DT_FLOAT
    }
  }
  attr {
    key: "_output_shapes"
    value {
      list {
        shape {
          dim {
            size: 128
          }
          dim {
            size: 10
          }
        }
      }
    }
  }
  attr {
    key: "data_format"
    value {
      s: "NHWC"
    }
  }
}
node {
  name: "labels_cast"
  op: "Cast"
  input: "labels"
  attr {
    key: "DstT"
    value {
      type: DT_INT64
    }
  }
  attr {
    key: "SrcT"
    value {
      type: DT_FLOAT
    }
  }
  attr {
    key: "Truncate"
    value {
      b: false
    }
  }
  attr {
    key: "_output_shapes"
    value {
      list {
        shape {
          dim {
            size: 128
          }
        }
      }
    }
  }
}
node {
  name: "cross_entropy_per_example/cross_entropy_per_example"
  op: "SparseSoftmaxCrossEntropyWithLogits"
  input: "softmax_add"
  input: "labels_cast"
  attr {
    key: "T"
    value {
      type: DT_FLOAT
    }
  }
  attr {
    key: "Tlabels"
    value {
      type: DT_INT64
    }
  }
  attr {
    key: "_output_shapes"
    value {
      list {
        shape {
          dim {
            size: 128
          }
        }
        shape {
          dim {
            size: 128
          }
          dim {
            size: 10
          }
        }
      }
    }
  }
}
node {
  name: "Const"
  op: "Const"
  attr {
    key: "_output_shapes"
    value {
      list {
        shape {
          dim {
            size: 1
          }
        }
      }
    }
  }
  attr {
    key: "dtype"
    value {
      type: DT_INT32
    }
  }
  attr {
    key: "value"
    value {
      tensor {
        dtype: DT_INT32
        tensor_shape {
          dim {
            size: 1
          }
        }
        int_val: 0
      }
    }
  }
}
node {
  name: "cross_entropy"
  op: "Mean"
  input: "cross_entropy_per_example/cross_entropy_per_example"
  input: "Const"
  attr {
    key: "T"
    value {
      type: DT_FLOAT
    }
  }
  attr {
    key: "Tidx"
    value {
      type: DT_INT32
    }
  }
  attr {
    key: "_output_shapes"
    value {
      list {
        shape {
        }
      }
    }
  }
  attr {
    key: "keep_dims"
    value {
      b: false
    }
  }
}
node {
  name: "gradients/Shape"
  op: "Const"
  attr {
    key: "_output_shapes"
    value {
      list {
        shape {
          dim {
          }
        }
      }
    }
  }
  attr {
    key: "dtype"
    value {
      type: DT_INT32
    }
  }
  attr {
    key: "value"
    value {
      tensor {
        dtype: DT_INT32
        tensor_shape {
          dim {
          }
        }
      }
    }
  }
}
node {
  name: "gradients/grad_ys_0"
  op: "Const"
  attr {
    key: "_output_shapes"
    value {
      list {
        shape {
        }
      }
    }
  }
  attr {
    key: "dtype"
    value {
      type: DT_FLOAT
    }
  }
  attr {
    key: "value"
    value {
      tensor {
        dtype: DT_FLOAT
        tensor_shape {
        }
        float_val: 1.0
      }
    }
  }
}
node {
  name: "gradients/Fill"
  op: "Fill"
  input: "gradients/Shape"
  input: "gradients/grad_ys_0"
  attr {
    key: "T"
    value {
      type: DT_FLOAT
    }
  }
  attr {
    key: "_output_shapes"
    value {
      list {
        shape {
        }
      }
    }
  }
  attr {
    key: "index_type"
    value {
      type: DT_INT32
    }
  }
}
node {
  name: "gradients/cross_entropy_grad/Reshape/shape"
  op: "Const"
  attr {
    key: "_output_shapes"
    value {
      list {
        shape {
          dim {
            size: 1
          }
        }
      }
    }
  }
  attr {
    key: "dtype"
    value {
      type: DT_INT32
    }
  }
  attr {
    key: "value"
    value {
      tensor {
        dtype: DT_INT32
        tensor_shape {
          dim {
            size: 1
          }
        }
        int_val: 1
      }
    }
  }
}
node {
  name: "gradients/cross_entropy_grad/Reshape"
  op: "Reshape"
  input: "gradients/Fill"
  input: "gradients/cross_entropy_grad/Reshape/shape"
  attr {
    key: "T"
    value {
      type: DT_FLOAT
    }
  }
  attr {
    key: "Tshape"
    value {
      type: DT_INT32
    }
  }
  attr {
    key: "_output_shapes"
    value {
      list {
        shape {
          dim {
            size: 1
          }
        }
      }
    }
  }
}
node {
  name: "gradients/cross_entropy_grad/Const"
  op: "Const"
  attr {
    key: "_output_shapes"
    value {
      list {
        shape {
          dim {
            size: 1
          }
        }
      }
    }
  }
  attr {
    key: "dtype"
    value {
      type: DT_INT32
    }
  }
  attr {
    key: "value"
    value {
      tensor {
        dtype: DT_INT32
        tensor_shape {
          dim {
            size: 1
          }
        }
        int_val: 128
      }
    }
  }
}
node {
  name: "gradients/cross_entropy_grad/Tile"
  op: "Tile"
  input: "gradients/cross_entropy_grad/Reshape"
  input: "gradients/cross_entropy_grad/Const"
  attr {
    key: "T"
    value {
      type: DT_FLOAT
    }
  }
  attr {
    key: "Tmultiples"
    value {
      type: DT_INT32
    }
  }
  attr {
    key: "_output_shapes"
    value {
      list {
        shape {
          dim {
            size: 128
          }
        }
      }
    }
  }
}
node {
  name: "gradients/cross_entropy_grad/Const_1"
  op: "Const"
  attr {
    key: "_output_shapes"
    value {
      list {
        shape {
        }
      }
    }
  }
  attr {
    key: "dtype"
    value {
      type: DT_FLOAT
    }
  }
  attr {
    key: "value"
    value {
      tensor {
        dtype: DT_FLOAT
        tensor_shape {
        }
        float_val: 128.0
      }
    }
  }
}
node {
  name: "gradients/cross_entropy_grad/truediv"
  op: "RealDiv"
  input: "gradients/cross_entropy_grad/Tile"
  input: "gradients/cross_entropy_grad/Const_1"
  attr {
    key: "T"
    value {
      type: DT_FLOAT
    }
  }
  attr {
    key: "_output_shapes"
    value {
      list {
        shape {
          dim {
            size: 128
          }
        }
      }
    }
  }
}
node {
  name: "gradients/cross_entropy_per_example/cross_entropy_per_example_grad/PreventGradient"
  op: "PreventGradient"
  input: "cross_entropy_per_example/cross_entropy_per_example:1"
  attr {
    key: "T"
    value {
      type: DT_FLOAT
    }
  }
  attr {
    key: "_output_shapes"
    value {
      list {
        shape {
          dim {
            size: 128
          }
          dim {
            size: 10
          }
        }
      }
    }
  }
  attr {
    key: "message"
    value {
      s: "Currently there is no way to take the second derivative of sparse_softmax_cross_entropy_with_logits due to the fused implementation\'s interaction with tf.gradients()"
    }
  }
}
node {
  name: "gradients/cross_entropy_per_example/cross_entropy_per_example_grad/ExpandDims/dim"
  op: "Const"
  attr {
    key: "_output_shapes"
    value {
      list {
        shape {
        }
      }
    }
  }
  attr {
    key: "dtype"
    value {
      type: DT_INT32
    }
  }
  attr {
    key: "value"
    value {
      tensor {
        dtype: DT_INT32
        tensor_shape {
        }
        int_val: -1
      }
    }
  }
}
node {
  name: "gradients/cross_entropy_per_example/cross_entropy_per_example_grad/ExpandDims"
  op: "ExpandDims"
  input: "gradients/cross_entropy_grad/truediv"
  input: "gradients/cross_entropy_per_example/cross_entropy_per_example_grad/ExpandDims/dim"
  attr {
    key: "T"
    value {
      type: DT_FLOAT
    }
  }
  attr {
    key: "Tdim"
    value {
      type: DT_INT32
    }
  }
  attr {
    key: "_output_shapes"
    value {
      list {
        shape {
          dim {
            size: 128
          }
          dim {
            size: 1
          }
        }
      }
    }
  }
}
node {
  name: "gradients/cross_entropy_per_example/cross_entropy_per_example_grad/mul"
  op: "Mul"
  input: "gradients/cross_entropy_per_example/cross_entropy_per_example_grad/ExpandDims"
  input: "gradients/cross_entropy_per_example/cross_entropy_per_example_grad/PreventGradient"
  attr {
    key: "T"
    value {
      type: DT_FLOAT
    }
  }
  attr {
    key: "_output_shapes"
    value {
      list {
        shape {
          dim {
            size: 128
          }
          dim {
            size: 10
          }
        }
      }
    }
  }
}
node {
  name: "gradients/softmax_add_grad/BiasAddGrad"
  op: "BiasAddGrad"
  input: "gradients/cross_entropy_per_example/cross_entropy_per_example_grad/mul"
  attr {
    key: "T"
    value {
      type: DT_FLOAT
    }
  }
  attr {
    key: "_output_shapes"
    value {
      list {
        shape {
          dim {
            size: 10
          }
        }
      }
    }
  }
  attr {
    key: "data_format"
    value {
      s: "NHWC"
    }
  }
}
node {
  name: "gradients/softmax_add_grad/tuple/group_deps"
  op: "NoOp"
  input: "^gradients/cross_entropy_per_example/cross_entropy_per_example_grad/mul"
  input: "^gradients/softmax_add_grad/BiasAddGrad"
}
node {
  name: "gradients/softmax_add_grad/tuple/control_dependency"
  op: "Identity"
  input: "gradients/cross_entropy_per_example/cross_entropy_per_example_grad/mul"
  input: "^gradients/softmax_add_grad/tuple/group_deps"
  attr {
    key: "T"
    value {
      type: DT_FLOAT
    }
  }
  attr {
    key: "_class"
    value {
      list {
        s: "loc:@gradients/cross_entropy_per_example/cross_entropy_per_example_grad/mul"
      }
    }
  }
  attr {
    key: "_output_shapes"
    value {
      list {
        shape {
          dim {
            size: 128
          }
          dim {
            size: 10
          }
        }
      }
    }
  }
}
node {
  name: "gradients/softmax_add_grad/tuple/control_dependency_1"
  op: "Identity"
  input: "gradients/softmax_add_grad/BiasAddGrad"
  input: "^gradients/softmax_add_grad/tuple/group_deps"
  attr {
    key: "T"
    value {
      type: DT_FLOAT
    }
  }
  attr {
    key: "_class"
    value {
      list {
        s: "loc:@gradients/softmax_add_grad/BiasAddGrad"
      }
    }
  }
  attr {
    key: "_output_shapes"
    value {
      list {
        shape {
          dim {
            size: 10
          }
        }
      }
    }
  }
}
node {
  name: "gradients/softmax_matmul_grad/MatMul"
  op: "MatMul"
  input: "gradients/softmax_add_grad/tuple/control_dependency"
  input: "softmax_linear_weights/read"
  attr {
    key: "T"
    value {
      type: DT_FLOAT
    }
  }
  attr {
    key: "_output_shapes"
    value {
      list {
        shape {
          dim {
            size: 128
          }
          dim {
            size: 192
          }
        }
      }
    }
  }
  attr {
    key: "transpose_a"
    value {
      b: false
    }
  }
  attr {
    key: "transpose_b"
    value {
      b: true
    }
  }
}
node {
  name: "gradients/softmax_matmul_grad/MatMul_1"
  op: "MatMul"
  input: "dense4_relu"
  input: "gradients/softmax_add_grad/tuple/control_dependency"
  attr {
    key: "T"
    value {
      type: DT_FLOAT
    }
  }
  attr {
    key: "_output_shapes"
    value {
      list {
        shape {
          dim {
            size: 192
          }
          dim {
            size: 10
          }
        }
      }
    }
  }
  attr {
    key: "transpose_a"
    value {
      b: true
    }
  }
  attr {
    key: "transpose_b"
    value {
      b: false
    }
  }
}
node {
  name: "gradients/softmax_matmul_grad/tuple/group_deps"
  op: "NoOp"
  input: "^gradients/softmax_matmul_grad/MatMul"
  input: "^gradients/softmax_matmul_grad/MatMul_1"
}
node {
  name: "gradients/softmax_matmul_grad/tuple/control_dependency"
  op: "Identity"
  input: "gradients/softmax_matmul_grad/MatMul"
  input: "^gradients/softmax_matmul_grad/tuple/group_deps"
  attr {
    key: "T"
    value {
      type: DT_FLOAT
    }
  }
  attr {
    key: "_class"
    value {
      list {
        s: "loc:@gradients/softmax_matmul_grad/MatMul"
      }
    }
  }
  attr {
    key: "_output_shapes"
    value {
      list {
        shape {
          dim {
            size: 128
          }
          dim {
            size: 192
          }
        }
      }
    }
  }
}
node {
  name: "gradients/softmax_matmul_grad/tuple/control_dependency_1"
  op: "Identity"
  input: "gradients/softmax_matmul_grad/MatMul_1"
  input: "^gradients/softmax_matmul_grad/tuple/group_deps"
  attr {
    key: "T"
    value {
      type: DT_FLOAT
    }
  }
  attr {
    key: "_class"
    value {
      list {
        s: "loc:@gradients/softmax_matmul_grad/MatMul_1"
      }
    }
  }
  attr {
    key: "_output_shapes"
    value {
      list {
        shape {
          dim {
            size: 192
          }
          dim {
            size: 10
          }
        }
      }
    }
  }
}
node {
  name: "gradients/dense4_relu_grad/ReluGrad"
  op: "ReluGrad"
  input: "gradients/softmax_matmul_grad/tuple/control_dependency"
  input: "dense4_relu"
  attr {
    key: "T"
    value {
      type: DT_FLOAT
    }
  }
  attr {
    key: "_output_shapes"
    value {
      list {
        shape {
          dim {
            size: 128
          }
          dim {
            size: 192
          }
        }
      }
    }
  }
}
node {
  name: "gradients/dense4_add_grad/BiasAddGrad"
  op: "BiasAddGrad"
  input: "gradients/dense4_relu_grad/ReluGrad"
  attr {
    key: "T"
    value {
      type: DT_FLOAT
    }
  }
  attr {
    key: "_output_shapes"
    value {
      list {
        shape {
          dim {
            size: 192
          }
        }
      }
    }
  }
  attr {
    key: "data_format"
    value {
      s: "NHWC"
    }
  }
}
node {
  name: "gradients/dense4_add_grad/tuple/group_deps"
  op: "NoOp"
  input: "^gradients/dense4_add_grad/BiasAddGrad"
  input: "^gradients/dense4_relu_grad/ReluGrad"
}
node {
  name: "gradients/dense4_add_grad/tuple/control_dependency"
  op: "Identity"
  input: "gradients/dense4_relu_grad/ReluGrad"
  input: "^gradients/dense4_add_grad/tuple/group_deps"
  attr {
    key: "T"
    value {
      type: DT_FLOAT
    }
  }
  attr {
    key: "_class"
    value {
      list {
        s: "loc:@gradients/dense4_relu_grad/ReluGrad"
      }
    }
  }
  attr {
    key: "_output_shapes"
    value {
      list {
        shape {
          dim {
            size: 128
          }
          dim {
            size: 192
          }
        }
      }
    }
  }
}
node {
  name: "gradients/dense4_add_grad/tuple/control_dependency_1"
  op: "Identity"
  input: "gradients/dense4_add_grad/BiasAddGrad"
  input: "^gradients/dense4_add_grad/tuple/group_deps"
  attr {
    key: "T"
    value {
      type: DT_FLOAT
    }
  }
  attr {
    key: "_class"
    value {
      list {
        s: "loc:@gradients/dense4_add_grad/BiasAddGrad"
      }
    }
  }
  attr {
    key: "_output_shapes"
    value {
      list {
        shape {
          dim {
            size: 192
          }
        }
      }
    }
  }
}
node {
  name: "gradients/dense4_matmul_grad/MatMul"
  op: "MatMul"
  input: "gradients/dense4_add_grad/tuple/control_dependency"
  input: "dense4_weights/read"
  attr {
    key: "T"
    value {
      type: DT_FLOAT
    }
  }
  attr {
    key: "_output_shapes"
    value {
      list {
        shape {
          dim {
            size: 128
          }
          dim {
            size: 384
          }
        }
      }
    }
  }
  attr {
    key: "transpose_a"
    value {
      b: false
    }
  }
  attr {
    key: "transpose_b"
    value {
      b: true
    }
  }
}
node {
  name: "gradients/dense4_matmul_grad/MatMul_1"
  op: "MatMul"
  input: "dense3_relu"
  input: "gradients/dense4_add_grad/tuple/control_dependency"
  attr {
    key: "T"
    value {
      type: DT_FLOAT
    }
  }
  attr {
    key: "_output_shapes"
    value {
      list {
        shape {
          dim {
            size: 384
          }
          dim {
            size: 192
          }
        }
      }
    }
  }
  attr {
    key: "transpose_a"
    value {
      b: true
    }
  }
  attr {
    key: "transpose_b"
    value {
      b: false
    }
  }
}
node {
  name: "gradients/dense4_matmul_grad/tuple/group_deps"
  op: "NoOp"
  input: "^gradients/dense4_matmul_grad/MatMul"
  input: "^gradients/dense4_matmul_grad/MatMul_1"
}
node {
  name: "gradients/dense4_matmul_grad/tuple/control_dependency"
  op: "Identity"
  input: "gradients/dense4_matmul_grad/MatMul"
  input: "^gradients/dense4_matmul_grad/tuple/group_deps"
  attr {
    key: "T"
    value {
      type: DT_FLOAT
    }
  }
  attr {
    key: "_class"
    value {
      list {
        s: "loc:@gradients/dense4_matmul_grad/MatMul"
      }
    }
  }
  attr {
    key: "_output_shapes"
    value {
      list {
        shape {
          dim {
            size: 128
          }
          dim {
            size: 384
          }
        }
      }
    }
  }
}
node {
  name: "gradients/dense4_matmul_grad/tuple/control_dependency_1"
  op: "Identity"
  input: "gradients/dense4_matmul_grad/MatMul_1"
  input: "^gradients/dense4_matmul_grad/tuple/group_deps"
  attr {
    key: "T"
    value {
      type: DT_FLOAT
    }
  }
  attr {
    key: "_class"
    value {
      list {
        s: "loc:@gradients/dense4_matmul_grad/MatMul_1"
      }
    }
  }
  attr {
    key: "_output_shapes"
    value {
      list {
        shape {
          dim {
            size: 384
          }
          dim {
            size: 192
          }
        }
      }
    }
  }
}
node {
  name: "gradients/dense3_relu_grad/ReluGrad"
  op: "ReluGrad"
  input: "gradients/dense4_matmul_grad/tuple/control_dependency"
  input: "dense3_relu"
  attr {
    key: "T"
    value {
      type: DT_FLOAT
    }
  }
  attr {
    key: "_output_shapes"
    value {
      list {
        shape {
          dim {
            size: 128
          }
          dim {
            size: 384
          }
        }
      }
    }
  }
}
node {
  name: "gradients/dense3_add_grad/BiasAddGrad"
  op: "BiasAddGrad"
  input: "gradients/dense3_relu_grad/ReluGrad"
  attr {
    key: "T"
    value {
      type: DT_FLOAT
    }
  }
  attr {
    key: "_output_shapes"
    value {
      list {
        shape {
          dim {
            size: 384
          }
        }
      }
    }
  }
  attr {
    key: "data_format"
    value {
      s: "NHWC"
    }
  }
}
node {
  name: "gradients/dense3_add_grad/tuple/group_deps"
  op: "NoOp"
  input: "^gradients/dense3_add_grad/BiasAddGrad"
  input: "^gradients/dense3_relu_grad/ReluGrad"
}
node {
  name: "gradients/dense3_add_grad/tuple/control_dependency"
  op: "Identity"
  input: "gradients/dense3_relu_grad/ReluGrad"
  input: "^gradients/dense3_add_grad/tuple/group_deps"
  attr {
    key: "T"
    value {
      type: DT_FLOAT
    }
  }
  attr {
    key: "_class"
    value {
      list {
        s: "loc:@gradients/dense3_relu_grad/ReluGrad"
      }
    }
  }
  attr {
    key: "_output_shapes"
    value {
      list {
        shape {
          dim {
            size: 128
          }
          dim {
            size: 384
          }
        }
      }
    }
  }
}
node {
  name: "gradients/dense3_add_grad/tuple/control_dependency_1"
  op: "Identity"
  input: "gradients/dense3_add_grad/BiasAddGrad"
  input: "^gradients/dense3_add_grad/tuple/group_deps"
  attr {
    key: "T"
    value {
      type: DT_FLOAT
    }
  }
  attr {
    key: "_class"
    value {
      list {
        s: "loc:@gradients/dense3_add_grad/BiasAddGrad"
      }
    }
  }
  attr {
    key: "_output_shapes"
    value {
      list {
        shape {
          dim {
            size: 384
          }
        }
      }
    }
  }
}
node {
  name: "gradients/dense3_matmul_grad/MatMul"
  op: "MatMul"
  input: "gradients/dense3_add_grad/tuple/control_dependency"
  input: "dense3_weights/read"
  attr {
    key: "T"
    value {
      type: DT_FLOAT
    }
  }
  attr {
    key: "_output_shapes"
    value {
      list {
        shape {
          dim {
            size: 128
          }
          dim {
            size: 4096
          }
        }
      }
    }
  }
  attr {
    key: "transpose_a"
    value {
      b: false
    }
  }
  attr {
    key: "transpose_b"
    value {
      b: true
    }
  }
}
node {
  name: "gradients/dense3_matmul_grad/MatMul_1"
  op: "MatMul"
  input: "reshape"
  input: "gradients/dense3_add_grad/tuple/control_dependency"
  attr {
    key: "T"
    value {
      type: DT_FLOAT
    }
  }
  attr {
    key: "_output_shapes"
    value {
      list {
        shape {
          dim {
            size: 4096
          }
          dim {
            size: 384
          }
        }
      }
    }
  }
  attr {
    key: "transpose_a"
    value {
      b: true
    }
  }
  attr {
    key: "transpose_b"
    value {
      b: false
    }
  }
}
node {
  name: "gradients/dense3_matmul_grad/tuple/group_deps"
  op: "NoOp"
  input: "^gradients/dense3_matmul_grad/MatMul"
  input: "^gradients/dense3_matmul_grad/MatMul_1"
}
node {
  name: "gradients/dense3_matmul_grad/tuple/control_dependency"
  op: "Identity"
  input: "gradients/dense3_matmul_grad/MatMul"
  input: "^gradients/dense3_matmul_grad/tuple/group_deps"
  attr {
    key: "T"
    value {
      type: DT_FLOAT
    }
  }
  attr {
    key: "_class"
    value {
      list {
        s: "loc:@gradients/dense3_matmul_grad/MatMul"
      }
    }
  }
  attr {
    key: "_output_shapes"
    value {
      list {
        shape {
          dim {
            size: 128
          }
          dim {
            size: 4096
          }
        }
      }
    }
  }
}
node {
  name: "gradients/dense3_matmul_grad/tuple/control_dependency_1"
  op: "Identity"
  input: "gradients/dense3_matmul_grad/MatMul_1"
  input: "^gradients/dense3_matmul_grad/tuple/group_deps"
  attr {
    key: "T"
    value {
      type: DT_FLOAT
    }
  }
  attr {
    key: "_class"
    value {
      list {
        s: "loc:@gradients/dense3_matmul_grad/MatMul_1"
      }
    }
  }
  attr {
    key: "_output_shapes"
    value {
      list {
        shape {
          dim {
            size: 4096
          }
          dim {
            size: 384
          }
        }
      }
    }
  }
}
node {
  name: "gradients/reshape_grad/Shape"
  op: "Const"
  attr {
    key: "_output_shapes"
    value {
      list {
        shape {
          dim {
            size: 4
          }
        }
      }
    }
  }
  attr {
    key: "dtype"
    value {
      type: DT_INT32
    }
  }
  attr {
    key: "value"
    value {
      tensor {
        dtype: DT_INT32
        tensor_shape {
          dim {
            size: 4
          }
        }
        tensor_content: "\200\000\000\000\010\000\000\000\010\000\000\000@\000\000\000"
      }
    }
  }
}
node {
  name: "gradients/reshape_grad/Reshape"
  op: "Reshape"
  input: "gradients/dense3_matmul_grad/tuple/control_dependency"
  input: "gradients/reshape_grad/Shape"
  attr {
    key: "T"
    value {
      type: DT_FLOAT
    }
  }
  attr {
    key: "Tshape"
    value {
      type: DT_INT32
    }
  }
  attr {
    key: "_output_shapes"
    value {
      list {
        shape {
          dim {
            size: 128
          }
          dim {
            size: 8
          }
          dim {
            size: 8
          }
          dim {
            size: 64
          }
        }
      }
    }
  }
}
node {
  name: "gradients/pool2_grad/MaxPoolGrad"
  op: "MaxPoolGrad"
  input: "norm2"
  input: "pool2"
  input: "gradients/reshape_grad/Reshape"
  attr {
    key: "T"
    value {
      type: DT_FLOAT
    }
  }
  attr {
    key: "_output_shapes"
    value {
      list {
        shape {
          dim {
            size: 128
          }
          dim {
            size: 16
          }
          dim {
            size: 16
          }
          dim {
            size: 64
          }
        }
      }
    }
  }
  attr {
    key: "data_format"
    value {
      s: "NHWC"
    }
  }
  attr {
    key: "ksize"
    value {
      list {
        i: 1
        i: 3
        i: 3
        i: 1
      }
    }
  }
  attr {
    key: "padding"
    value {
      s: "SAME"
    }
  }
  attr {
    key: "strides"
    value {
      list {
        i: 1
        i: 2
        i: 2
        i: 1
      }
    }
  }
}
node {
  name: "gradients/norm2_grad/LRNGrad"
  op: "LRNGrad"
  input: "gradients/pool2_grad/MaxPoolGrad"
  input: "conv2_relu"
  input: "norm2"
  attr {
    key: "T"
    value {
      type: DT_FLOAT
    }
  }
  attr {
    key: "_output_shapes"
    value {
      list {
        shape {
          dim {
            size: 128
          }
          dim {
            size: 16
          }
          dim {
            size: 16
          }
          dim {
            size: 64
          }
        }
      }
    }
  }
  attr {
    key: "alpha"
    value {
      f: 0.00011111111234640703
    }
  }
  attr {
    key: "beta"
    value {
      f: 0.75
    }
  }
  attr {
    key: "bias"
    value {
      f: 1.0
    }
  }
  attr {
    key: "depth_radius"
    value {
      i: 4
    }
  }
}
node {
  name: "gradients/conv2_relu_grad/ReluGrad"
  op: "ReluGrad"
  input: "gradients/norm2_grad/LRNGrad"
  input: "conv2_relu"
  attr {
    key: "T"
    value {
      type: DT_FLOAT
    }
  }
  attr {
    key: "_output_shapes"
    value {
      list {
        shape {
          dim {
            size: 128
          }
          dim {
            size: 16
          }
          dim {
            size: 16
          }
          dim {
            size: 64
          }
        }
      }
    }
  }
}
node {
  name: "gradients/conv2_add_grad/BiasAddGrad"
  op: "BiasAddGrad"
  input: "gradients/conv2_relu_grad/ReluGrad"
  attr {
    key: "T"
    value {
      type: DT_FLOAT
    }
  }
  attr {
    key: "_output_shapes"
    value {
      list {
        shape {
          dim {
            size: 64
          }
        }
      }
    }
  }
  attr {
    key: "data_format"
    value {
      s: "NHWC"
    }
  }
}
node {
  name: "gradients/conv2_add_grad/tuple/group_deps"
  op: "NoOp"
  input: "^gradients/conv2_add_grad/BiasAddGrad"
  input: "^gradients/conv2_relu_grad/ReluGrad"
}
node {
  name: "gradients/conv2_add_grad/tuple/control_dependency"
  op: "Identity"
  input: "gradients/conv2_relu_grad/ReluGrad"
  input: "^gradients/conv2_add_grad/tuple/group_deps"
  attr {
    key: "T"
    value {
      type: DT_FLOAT
    }
  }
  attr {
    key: "_class"
    value {
      list {
        s: "loc:@gradients/conv2_relu_grad/ReluGrad"
      }
    }
  }
  attr {
    key: "_output_shapes"
    value {
      list {
        shape {
          dim {
            size: 128
          }
          dim {
            size: 16
          }
          dim {
            size: 16
          }
          dim {
            size: 64
          }
        }
      }
    }
  }
}
node {
  name: "gradients/conv2_add_grad/tuple/control_dependency_1"
  op: "Identity"
  input: "gradients/conv2_add_grad/BiasAddGrad"
  input: "^gradients/conv2_add_grad/tuple/group_deps"
  attr {
    key: "T"
    value {
      type: DT_FLOAT
    }
  }
  attr {
    key: "_class"
    value {
      list {
        s: "loc:@gradients/conv2_add_grad/BiasAddGrad"
      }
    }
  }
  attr {
    key: "_output_shapes"
    value {
      list {
        shape {
          dim {
            size: 64
          }
        }
      }
    }
  }
}
node {
  name: "gradients/conv2_matmul_grad/ShapeN"
  op: "ShapeN"
  input: "norm1"
  input: "conv2_weights/read"
  attr {
    key: "N"
    value {
      i: 2
    }
  }
  attr {
    key: "T"
    value {
      type: DT_FLOAT
    }
  }
  attr {
    key: "_output_shapes"
    value {
      list {
        shape {
          dim {
            size: 4
          }
        }
        shape {
          dim {
            size: 4
          }
        }
      }
    }
  }
  attr {
    key: "out_type"
    value {
      type: DT_INT32
    }
  }
}
node {
  name: "gradients/conv2_matmul_grad/Conv2DBackpropInput"
  op: "Conv2DBackpropInput"
  input: "gradients/conv2_matmul_grad/ShapeN"
  input: "conv2_weights/read"
  input: "gradients/conv2_add_grad/tuple/control_dependency"
  attr {
    key: "T"
    value {
      type: DT_FLOAT
    }
  }
  attr {
    key: "_output_shapes"
    value {
      list {
        shape {
          dim {
            size: 128
          }
          dim {
            size: 16
          }
          dim {
            size: 16
          }
          dim {
            size: 64
          }
        }
      }
    }
  }
  attr {
    key: "data_format"
    value {
      s: "NHWC"
    }
  }
  attr {
    key: "dilations"
    value {
      list {
        i: 1
        i: 1
        i: 1
        i: 1
      }
    }
  }
  attr {
    key: "explicit_paddings"
    value {
      list {
      }
    }
  }
  attr {
    key: "padding"
    value {
      s: "SAME"
    }
  }
  attr {
    key: "strides"
    value {
      list {
        i: 1
        i: 1
        i: 1
        i: 1
      }
    }
  }
  attr {
    key: "use_cudnn_on_gpu"
    value {
      b: true
    }
  }
}
node {
  name: "gradients/conv2_matmul_grad/Conv2DBackpropFilter"
  op: "Conv2DBackpropFilter"
  input: "norm1"
  input: "gradients/conv2_matmul_grad/ShapeN:1"
  input: "gradients/conv2_add_grad/tuple/control_dependency"
  attr {
    key: "T"
    value {
      type: DT_FLOAT
    }
  }
  attr {
    key: "_output_shapes"
    value {
      list {
        shape {
          dim {
            size: 5
          }
          dim {
            size: 5
          }
          dim {
            size: 64
          }
          dim {
            size: 64
          }
        }
      }
    }
  }
  attr {
    key: "data_format"
    value {
      s: "NHWC"
    }
  }
  attr {
    key: "dilations"
    value {
      list {
        i: 1
        i: 1
        i: 1
        i: 1
      }
    }
  }
  attr {
    key: "explicit_paddings"
    value {
      list {
      }
    }
  }
  attr {
    key: "padding"
    value {
      s: "SAME"
    }
  }
  attr {
    key: "strides"
    value {
      list {
        i: 1
        i: 1
        i: 1
        i: 1
      }
    }
  }
  attr {
    key: "use_cudnn_on_gpu"
    value {
      b: true
    }
  }
}
node {
  name: "gradients/conv2_matmul_grad/tuple/group_deps"
  op: "NoOp"
  input: "^gradients/conv2_matmul_grad/Conv2DBackpropFilter"
  input: "^gradients/conv2_matmul_grad/Conv2DBackpropInput"
}
node {
  name: "gradients/conv2_matmul_grad/tuple/control_dependency"
  op: "Identity"
  input: "gradients/conv2_matmul_grad/Conv2DBackpropInput"
  input: "^gradients/conv2_matmul_grad/tuple/group_deps"
  attr {
    key: "T"
    value {
      type: DT_FLOAT
    }
  }
  attr {
    key: "_class"
    value {
      list {
        s: "loc:@gradients/conv2_matmul_grad/Conv2DBackpropInput"
      }
    }
  }
  attr {
    key: "_output_shapes"
    value {
      list {
        shape {
          dim {
            size: 128
          }
          dim {
            size: 16
          }
          dim {
            size: 16
          }
          dim {
            size: 64
          }
        }
      }
    }
  }
}
node {
  name: "gradients/conv2_matmul_grad/tuple/control_dependency_1"
  op: "Identity"
  input: "gradients/conv2_matmul_grad/Conv2DBackpropFilter"
  input: "^gradients/conv2_matmul_grad/tuple/group_deps"
  attr {
    key: "T"
    value {
      type: DT_FLOAT
    }
  }
  attr {
    key: "_class"
    value {
      list {
        s: "loc:@gradients/conv2_matmul_grad/Conv2DBackpropFilter"
      }
    }
  }
  attr {
    key: "_output_shapes"
    value {
      list {
        shape {
          dim {
            size: 5
          }
          dim {
            size: 5
          }
          dim {
            size: 64
          }
          dim {
            size: 64
          }
        }
      }
    }
  }
}
node {
  name: "gradients/norm1_grad/LRNGrad"
  op: "LRNGrad"
  input: "gradients/conv2_matmul_grad/tuple/control_dependency"
  input: "pool1"
  input: "norm1"
  attr {
    key: "T"
    value {
      type: DT_FLOAT
    }
  }
  attr {
    key: "_output_shapes"
    value {
      list {
        shape {
          dim {
            size: 128
          }
          dim {
            size: 16
          }
          dim {
            size: 16
          }
          dim {
            size: 64
          }
        }
      }
    }
  }
  attr {
    key: "alpha"
    value {
      f: 0.00011111111234640703
    }
  }
  attr {
    key: "beta"
    value {
      f: 0.75
    }
  }
  attr {
    key: "bias"
    value {
      f: 1.0
    }
  }
  attr {
    key: "depth_radius"
    value {
      i: 4
    }
  }
}
node {
  name: "gradients/pool1_grad/MaxPoolGrad"
  op: "MaxPoolGrad"
  input: "conv1_relu"
  input: "pool1"
  input: "gradients/norm1_grad/LRNGrad"
  attr {
    key: "T"
    value {
      type: DT_FLOAT
    }
  }
  attr {
    key: "_output_shapes"
    value {
      list {
        shape {
          dim {
            size: 128
          }
          dim {
            size: 32
          }
          dim {
            size: 32
          }
          dim {
            size: 64
          }
        }
      }
    }
  }
  attr {
    key: "data_format"
    value {
      s: "NHWC"
    }
  }
  attr {
    key: "ksize"
    value {
      list {
        i: 1
        i: 3
        i: 3
        i: 1
      }
    }
  }
  attr {
    key: "padding"
    value {
      s: "SAME"
    }
  }
  attr {
    key: "strides"
    value {
      list {
        i: 1
        i: 2
        i: 2
        i: 1
      }
    }
  }
}
node {
  name: "gradients/conv1_relu_grad/ReluGrad"
  op: "ReluGrad"
  input: "gradients/pool1_grad/MaxPoolGrad"
  input: "conv1_relu"
  attr {
    key: "T"
    value {
      type: DT_FLOAT
    }
  }
  attr {
    key: "_output_shapes"
    value {
      list {
        shape {
          dim {
            size: 128
          }
          dim {
            size: 32
          }
          dim {
            size: 32
          }
          dim {
            size: 64
          }
        }
      }
    }
  }
}
node {
  name: "gradients/conv1_add_grad/BiasAddGrad"
  op: "BiasAddGrad"
  input: "gradients/conv1_relu_grad/ReluGrad"
  attr {
    key: "T"
    value {
      type: DT_FLOAT
    }
  }
  attr {
    key: "_output_shapes"
    value {
      list {
        shape {
          dim {
            size: 64
          }
        }
      }
    }
  }
  attr {
    key: "data_format"
    value {
      s: "NHWC"
    }
  }
}
node {
  name: "gradients/conv1_add_grad/tuple/group_deps"
  op: "NoOp"
  input: "^gradients/conv1_add_grad/BiasAddGrad"
  input: "^gradients/conv1_relu_grad/ReluGrad"
}
node {
  name: "gradients/conv1_add_grad/tuple/control_dependency"
  op: "Identity"
  input: "gradients/conv1_relu_grad/ReluGrad"
  input: "^gradients/conv1_add_grad/tuple/group_deps"
  attr {
    key: "T"
    value {
      type: DT_FLOAT
    }
  }
  attr {
    key: "_class"
    value {
      list {
        s: "loc:@gradients/conv1_relu_grad/ReluGrad"
      }
    }
  }
  attr {
    key: "_output_shapes"
    value {
      list {
        shape {
          dim {
            size: 128
          }
          dim {
            size: 32
          }
          dim {
            size: 32
          }
          dim {
            size: 64
          }
        }
      }
    }
  }
}
node {
  name: "gradients/conv1_add_grad/tuple/control_dependency_1"
  op: "Identity"
  input: "gradients/conv1_add_grad/BiasAddGrad"
  input: "^gradients/conv1_add_grad/tuple/group_deps"
  attr {
    key: "T"
    value {
      type: DT_FLOAT
    }
  }
  attr {
    key: "_class"
    value {
      list {
        s: "loc:@gradients/conv1_add_grad/BiasAddGrad"
      }
    }
  }
  attr {
    key: "_output_shapes"
    value {
      list {
        shape {
          dim {
            size: 64
          }
        }
      }
    }
  }
}
node {
  name: "gradients/conv1_matmul_grad/ShapeN"
  op: "ShapeN"
  input: "images"
  input: "conv1_weights/read"
  attr {
    key: "N"
    value {
      i: 2
    }
  }
  attr {
    key: "T"
    value {
      type: DT_FLOAT
    }
  }
  attr {
    key: "_output_shapes"
    value {
      list {
        shape {
          dim {
            size: 4
          }
        }
        shape {
          dim {
            size: 4
          }
        }
      }
    }
  }
  attr {
    key: "out_type"
    value {
      type: DT_INT32
    }
  }
}
node {
  name: "gradients/conv1_matmul_grad/Conv2DBackpropInput"
  op: "Conv2DBackpropInput"
  input: "gradients/conv1_matmul_grad/ShapeN"
  input: "conv1_weights/read"
  input: "gradients/conv1_add_grad/tuple/control_dependency"
  attr {
    key: "T"
    value {
      type: DT_FLOAT
    }
  }
  attr {
    key: "_output_shapes"
    value {
      list {
        shape {
          dim {
            size: 128
          }
          dim {
            size: 32
          }
          dim {
            size: 32
          }
          dim {
            size: 3
          }
        }
      }
    }
  }
  attr {
    key: "data_format"
    value {
      s: "NHWC"
    }
  }
  attr {
    key: "dilations"
    value {
      list {
        i: 1
        i: 1
        i: 1
        i: 1
      }
    }
  }
  attr {
    key: "explicit_paddings"
    value {
      list {
      }
    }
  }
  attr {
    key: "padding"
    value {
      s: "SAME"
    }
  }
  attr {
    key: "strides"
    value {
      list {
        i: 1
        i: 1
        i: 1
        i: 1
      }
    }
  }
  attr {
    key: "use_cudnn_on_gpu"
    value {
      b: true
    }
  }
}
node {
  name: "gradients/conv1_matmul_grad/Conv2DBackpropFilter"
  op: "Conv2DBackpropFilter"
  input: "images"
  input: "gradients/conv1_matmul_grad/ShapeN:1"
  input: "gradients/conv1_add_grad/tuple/control_dependency"
  attr {
    key: "T"
    value {
      type: DT_FLOAT
    }
  }
  attr {
    key: "_output_shapes"
    value {
      list {
        shape {
          dim {
            size: 5
          }
          dim {
            size: 5
          }
          dim {
            size: 3
          }
          dim {
            size: 64
          }
        }
      }
    }
  }
  attr {
    key: "data_format"
    value {
      s: "NHWC"
    }
  }
  attr {
    key: "dilations"
    value {
      list {
        i: 1
        i: 1
        i: 1
        i: 1
      }
    }
  }
  attr {
    key: "explicit_paddings"
    value {
      list {
      }
    }
  }
  attr {
    key: "padding"
    value {
      s: "SAME"
    }
  }
  attr {
    key: "strides"
    value {
      list {
        i: 1
        i: 1
        i: 1
        i: 1
      }
    }
  }
  attr {
    key: "use_cudnn_on_gpu"
    value {
      b: true
    }
  }
}
node {
  name: "gradients/conv1_matmul_grad/tuple/group_deps"
  op: "NoOp"
  input: "^gradients/conv1_matmul_grad/Conv2DBackpropFilter"
  input: "^gradients/conv1_matmul_grad/Conv2DBackpropInput"
}
node {
  name: "gradients/conv1_matmul_grad/tuple/control_dependency_1"
  op: "Identity"
  input: "gradients/conv1_matmul_grad/Conv2DBackpropFilter"
  input: "^gradients/conv1_matmul_grad/tuple/group_deps"
  attr {
    key: "T"
    value {
      type: DT_FLOAT
    }
  }
  attr {
    key: "_class"
    value {
      list {
        s: "loc:@gradients/conv1_matmul_grad/Conv2DBackpropFilter"
      }
    }
  }
  attr {
    key: "_output_shapes"
    value {
      list {
        shape {
          dim {
            size: 5
          }
          dim {
            size: 5
          }
          dim {
            size: 3
          }
          dim {
            size: 64
          }
        }
      }
    }
  }
}
node {
  name: "GradientDescent/learning_rate"
  op: "Const"
  attr {
    key: "_output_shapes"
    value {
      list {
        shape {
        }
      }
    }
  }
  attr {
    key: "dtype"
    value {
      type: DT_FLOAT
    }
  }
  attr {
    key: "value"
    value {
      tensor {
        dtype: DT_FLOAT
        tensor_shape {
        }
        float_val: 0.12345600128173828
      }
    }
  }
}
node {
  name: "sc_retval_cross_entropy_0_0"
  op: "_Retval"
  input: "cross_entropy"
  attr {
    key: "T"
    value {
      type: DT_FLOAT
    }
  }
  attr {
    key: "index"
    value {
      i: 0
    }
  }
}
node {
  name: "gradients/conv1_matmul_grad/tuple/control_dependency_1_allreduce"
  op: "_SCAllReduce"
  input: "gradients/conv1_matmul_grad/tuple/control_dependency_1"
  attr {
    key: "T"
    value {
      type: DT_FLOAT
    }
  }
  attr {
    key: "_output_shapes"
    value {
      list {
        shape {
          dim {
            size: 5
          }
          dim {
            size: 5
          }
          dim {
            size: 3
          }
          dim {
            size: 64
          }
        }
      }
    }
  }
  attr {
    key: "num_devices"
    value {
      s: "2"
    }
  }
  attr {
    key: "reduction"
    value {
      s: "sum"
    }
  }
  attr {
    key: "tensor_name"
    value {
      s: "gradients/conv1_matmul_grad/tuple/control_dependency_1_allreduce"
    }
  }
}
node {
  name: "GradientDescent/update_conv1_weights/ApplyGradientDescent"
  op: "ApplyGradientDescent"
  input: "conv1_weights"
  input: "GradientDescent/learning_rate"
  input: "gradients/conv1_matmul_grad/tuple/control_dependency_1_allreduce"
  attr {
    key: "T"
    value {
      type: DT_FLOAT
    }
  }
  attr {
    key: "_class"
    value {
      list {
        s: "loc:@conv1_weights"
      }
    }
  }
  attr {
    key: "_output_shapes"
    value {
      list {
        shape {
          dim {
            size: 5
          }
          dim {
            size: 5
          }
          dim {
            size: 3
          }
          dim {
            size: 64
          }
        }
      }
    }
  }
  attr {
    key: "use_locking"
    value {
      b: false
    }
  }
}
node {
  name: "gradients/conv1_add_grad/tuple/control_dependency_1_allreduce"
  op: "_SCAllReduce"
  input: "gradients/conv1_add_grad/tuple/control_dependency_1"
  attr {
    key: "T"
    value {
      type: DT_FLOAT
    }
  }
  attr {
    key: "_output_shapes"
    value {
      list {
        shape {
          dim {
            size: 64
          }
        }
      }
    }
  }
  attr {
    key: "num_devices"
    value {
      s: "2"
    }
  }
  attr {
    key: "reduction"
    value {
      s: "sum"
    }
  }
  attr {
    key: "tensor_name"
    value {
      s: "gradients/conv1_add_grad/tuple/control_dependency_1_allreduce"
    }
  }
}
node {
  name: "GradientDescent/update_conv1_biases/ApplyGradientDescent"
  op: "ApplyGradientDescent"
  input: "conv1_biases"
  input: "GradientDescent/learning_rate"
  input: "gradients/conv1_add_grad/tuple/control_dependency_1_allreduce"
  attr {
    key: "T"
    value {
      type: DT_FLOAT
    }
  }
  attr {
    key: "_class"
    value {
      list {
        s: "loc:@conv1_biases"
      }
    }
  }
  attr {
    key: "_output_shapes"
    value {
      list {
        shape {
          dim {
            size: 64
          }
        }
      }
    }
  }
  attr {
    key: "use_locking"
    value {
      b: false
    }
  }
}
node {
  name: "gradients/conv2_matmul_grad/tuple/control_dependency_1_allreduce"
  op: "_SCAllReduce"
  input: "gradients/conv2_matmul_grad/tuple/control_dependency_1"
  attr {
    key: "T"
    value {
      type: DT_FLOAT
    }
  }
  attr {
    key: "_output_shapes"
    value {
      list {
        shape {
          dim {
            size: 5
          }
          dim {
            size: 5
          }
          dim {
            size: 64
          }
          dim {
            size: 64
          }
        }
      }
    }
  }
  attr {
    key: "num_devices"
    value {
      s: "2"
    }
  }
  attr {
    key: "reduction"
    value {
      s: "sum"
    }
  }
  attr {
    key: "tensor_name"
    value {
      s: "gradients/conv2_matmul_grad/tuple/control_dependency_1_allreduce"
    }
  }
}
node {
  name: "GradientDescent/update_conv2_weights/ApplyGradientDescent"
  op: "ApplyGradientDescent"
  input: "conv2_weights"
  input: "GradientDescent/learning_rate"
  input: "gradients/conv2_matmul_grad/tuple/control_dependency_1_allreduce"
  attr {
    key: "T"
    value {
      type: DT_FLOAT
    }
  }
  attr {
    key: "_class"
    value {
      list {
        s: "loc:@conv2_weights"
      }
    }
  }
  attr {
    key: "_output_shapes"
    value {
      list {
        shape {
          dim {
            size: 5
          }
          dim {
            size: 5
          }
          dim {
            size: 64
          }
          dim {
            size: 64
          }
        }
      }
    }
  }
  attr {
    key: "use_locking"
    value {
      b: false
    }
  }
}
node {
  name: "gradients/conv2_add_grad/tuple/control_dependency_1_allreduce"
  op: "_SCAllReduce"
  input: "gradients/conv2_add_grad/tuple/control_dependency_1"
  attr {
    key: "T"
    value {
      type: DT_FLOAT
    }
  }
  attr {
    key: "_output_shapes"
    value {
      list {
        shape {
          dim {
            size: 64
          }
        }
      }
    }
  }
  attr {
    key: "num_devices"
    value {
      s: "2"
    }
  }
  attr {
    key: "reduction"
    value {
      s: "sum"
    }
  }
  attr {
    key: "tensor_name"
    value {
      s: "gradients/conv2_add_grad/tuple/control_dependency_1_allreduce"
    }
  }
}
node {
  name: "GradientDescent/update_conv2_biases/ApplyGradientDescent"
  op: "ApplyGradientDescent"
  input: "conv2_biases"
  input: "GradientDescent/learning_rate"
  input: "gradients/conv2_add_grad/tuple/control_dependency_1_allreduce"
  attr {
    key: "T"
    value {
      type: DT_FLOAT
    }
  }
  attr {
    key: "_class"
    value {
      list {
        s: "loc:@conv2_biases"
      }
    }
  }
  attr {
    key: "_output_shapes"
    value {
      list {
        shape {
          dim {
            size: 64
          }
        }
      }
    }
  }
  attr {
    key: "use_locking"
    value {
      b: false
    }
  }
}
node {
  name: "gradients/dense3_matmul_grad/tuple/control_dependency_1_allreduce"
  op: "_SCAllReduce"
  input: "gradients/dense3_matmul_grad/tuple/control_dependency_1"
  attr {
    key: "T"
    value {
      type: DT_FLOAT
    }
  }
  attr {
    key: "_output_shapes"
    value {
      list {
        shape {
          dim {
            size: 4096
          }
          dim {
            size: 384
          }
        }
      }
    }
  }
  attr {
    key: "num_devices"
    value {
      s: "2"
    }
  }
  attr {
    key: "reduction"
    value {
      s: "sum"
    }
  }
  attr {
    key: "tensor_name"
    value {
      s: "gradients/dense3_matmul_grad/tuple/control_dependency_1_allreduce"
    }
  }
}
node {
  name: "GradientDescent/update_dense3_weights/ApplyGradientDescent"
  op: "ApplyGradientDescent"
  input: "dense3_weights"
  input: "GradientDescent/learning_rate"
  input: "gradients/dense3_matmul_grad/tuple/control_dependency_1_allreduce"
  attr {
    key: "T"
    value {
      type: DT_FLOAT
    }
  }
  attr {
    key: "_class"
    value {
      list {
        s: "loc:@dense3_weights"
      }
    }
  }
  attr {
    key: "_output_shapes"
    value {
      list {
        shape {
          dim {
            size: 4096
          }
          dim {
            size: 384
          }
        }
      }
    }
  }
  attr {
    key: "use_locking"
    value {
      b: false
    }
  }
}
node {
  name: "gradients/dense3_add_grad/tuple/control_dependency_1_allreduce"
  op: "_SCAllReduce"
  input: "gradients/dense3_add_grad/tuple/control_dependency_1"
  attr {
    key: "T"
    value {
      type: DT_FLOAT
    }
  }
  attr {
    key: "_output_shapes"
    value {
      list {
        shape {
          dim {
            size: 384
          }
        }
      }
    }
  }
  attr {
    key: "num_devices"
    value {
      s: "2"
    }
  }
  attr {
    key: "reduction"
    value {
      s: "sum"
    }
  }
  attr {
    key: "tensor_name"
    value {
      s: "gradients/dense3_add_grad/tuple/control_dependency_1_allreduce"
    }
  }
}
node {
  name: "GradientDescent/update_dense3_biases/ApplyGradientDescent"
  op: "ApplyGradientDescent"
  input: "dense3_biases"
  input: "GradientDescent/learning_rate"
  input: "gradients/dense3_add_grad/tuple/control_dependency_1_allreduce"
  attr {
    key: "T"
    value {
      type: DT_FLOAT
    }
  }
  attr {
    key: "_class"
    value {
      list {
        s: "loc:@dense3_biases"
      }
    }
  }
  attr {
    key: "_output_shapes"
    value {
      list {
        shape {
          dim {
            size: 384
          }
        }
      }
    }
  }
  attr {
    key: "use_locking"
    value {
      b: false
    }
  }
}
node {
  name: "gradients/dense4_matmul_grad/tuple/control_dependency_1_allreduce"
  op: "_SCAllReduce"
  input: "gradients/dense4_matmul_grad/tuple/control_dependency_1"
  attr {
    key: "T"
    value {
      type: DT_FLOAT
    }
  }
  attr {
    key: "_output_shapes"
    value {
      list {
        shape {
          dim {
            size: 384
          }
          dim {
            size: 192
          }
        }
      }
    }
  }
  attr {
    key: "num_devices"
    value {
      s: "2"
    }
  }
  attr {
    key: "reduction"
    value {
      s: "sum"
    }
  }
  attr {
    key: "tensor_name"
    value {
      s: "gradients/dense4_matmul_grad/tuple/control_dependency_1_allreduce"
    }
  }
}
node {
  name: "GradientDescent/update_dense4_weights/ApplyGradientDescent"
  op: "ApplyGradientDescent"
  input: "dense4_weights"
  input: "GradientDescent/learning_rate"
  input: "gradients/dense4_matmul_grad/tuple/control_dependency_1_allreduce"
  attr {
    key: "T"
    value {
      type: DT_FLOAT
    }
  }
  attr {
    key: "_class"
    value {
      list {
        s: "loc:@dense4_weights"
      }
    }
  }
  attr {
    key: "_output_shapes"
    value {
      list {
        shape {
          dim {
            size: 384
          }
          dim {
            size: 192
          }
        }
      }
    }
  }
  attr {
    key: "use_locking"
    value {
      b: false
    }
  }
}
node {
  name: "gradients/dense4_add_grad/tuple/control_dependency_1_allreduce"
  op: "_SCAllReduce"
  input: "gradients/dense4_add_grad/tuple/control_dependency_1"
  attr {
    key: "T"
    value {
      type: DT_FLOAT
    }
  }
  attr {
    key: "_output_shapes"
    value {
      list {
        shape {
          dim {
            size: 192
          }
        }
      }
    }
  }
  attr {
    key: "num_devices"
    value {
      s: "2"
    }
  }
  attr {
    key: "reduction"
    value {
      s: "sum"
    }
  }
  attr {
    key: "tensor_name"
    value {
      s: "gradients/dense4_add_grad/tuple/control_dependency_1_allreduce"
    }
  }
}
node {
  name: "GradientDescent/update_dense4_biases/ApplyGradientDescent"
  op: "ApplyGradientDescent"
  input: "dense4_biases"
  input: "GradientDescent/learning_rate"
  input: "gradients/dense4_add_grad/tuple/control_dependency_1_allreduce"
  attr {
    key: "T"
    value {
      type: DT_FLOAT
    }
  }
  attr {
    key: "_class"
    value {
      list {
        s: "loc:@dense4_biases"
      }
    }
  }
  attr {
    key: "_output_shapes"
    value {
      list {
        shape {
          dim {
            size: 192
          }
        }
      }
    }
  }
  attr {
    key: "use_locking"
    value {
      b: false
    }
  }
}
node {
  name: "gradients/softmax_matmul_grad/tuple/control_dependency_1_allreduce"
  op: "_SCAllReduce"
  input: "gradients/softmax_matmul_grad/tuple/control_dependency_1"
  attr {
    key: "T"
    value {
      type: DT_FLOAT
    }
  }
  attr {
    key: "_output_shapes"
    value {
      list {
        shape {
          dim {
            size: 192
          }
          dim {
            size: 10
          }
        }
      }
    }
  }
  attr {
    key: "num_devices"
    value {
      s: "2"
    }
  }
  attr {
    key: "reduction"
    value {
      s: "sum"
    }
  }
  attr {
    key: "tensor_name"
    value {
      s: "gradients/softmax_matmul_grad/tuple/control_dependency_1_allreduce"
    }
  }
}
node {
  name: "GradientDescent/update_softmax_linear_weights/ApplyGradientDescent"
  op: "ApplyGradientDescent"
  input: "softmax_linear_weights"
  input: "GradientDescent/learning_rate"
  input: "gradients/softmax_matmul_grad/tuple/control_dependency_1_allreduce"
  attr {
    key: "T"
    value {
      type: DT_FLOAT
    }
  }
  attr {
    key: "_class"
    value {
      list {
        s: "loc:@softmax_linear_weights"
      }
    }
  }
  attr {
    key: "_output_shapes"
    value {
      list {
        shape {
          dim {
            size: 192
          }
          dim {
            size: 10
          }
        }
      }
    }
  }
  attr {
    key: "use_locking"
    value {
      b: false
    }
  }
}
node {
  name: "gradients/softmax_add_grad/tuple/control_dependency_1_allreduce"
  op: "_SCAllReduce"
  input: "gradients/softmax_add_grad/tuple/control_dependency_1"
  attr {
    key: "T"
    value {
      type: DT_FLOAT
    }
  }
  attr {
    key: "_output_shapes"
    value {
      list {
        shape {
          dim {
            size: 10
          }
        }
      }
    }
  }
  attr {
    key: "num_devices"
    value {
      s: "2"
    }
  }
  attr {
    key: "reduction"
    value {
      s: "sum"
    }
  }
  attr {
    key: "tensor_name"
    value {
      s: "gradients/softmax_add_grad/tuple/control_dependency_1_allreduce"
    }
  }
}
node {
  name: "GradientDescent/update_softmax_linear_biases/ApplyGradientDescent"
  op: "ApplyGradientDescent"
  input: "softmax_linear_biases"
  input: "GradientDescent/learning_rate"
  input: "gradients/softmax_add_grad/tuple/control_dependency_1_allreduce"
  attr {
    key: "T"
    value {
      type: DT_FLOAT
    }
  }
  attr {
    key: "_class"
    value {
      list {
        s: "loc:@softmax_linear_biases"
      }
    }
  }
  attr {
    key: "_output_shapes"
    value {
      list {
        shape {
          dim {
            size: 10
          }
        }
      }
    }
  }
  attr {
    key: "use_locking"
    value {
      b: false
    }
  }
}
node {
  name: "GradientDescent"
  op: "NoOp"
  input: "^GradientDescent/update_conv1_biases/ApplyGradientDescent"
  input: "^GradientDescent/update_conv1_weights/ApplyGradientDescent"
  input: "^GradientDescent/update_conv2_biases/ApplyGradientDescent"
  input: "^GradientDescent/update_conv2_weights/ApplyGradientDescent"
  input: "^GradientDescent/update_dense3_biases/ApplyGradientDescent"
  input: "^GradientDescent/update_dense3_weights/ApplyGradientDescent"
  input: "^GradientDescent/update_dense4_biases/ApplyGradientDescent"
  input: "^GradientDescent/update_dense4_weights/ApplyGradientDescent"
  input: "^GradientDescent/update_softmax_linear_biases/ApplyGradientDescent"
  input: "^GradientDescent/update_softmax_linear_weights/ApplyGradientDescent"
}
versions {
  producer: 134
}
